app/src/main/assets/accurate.tflite (tflite, 903340 bytes, 8 tensors)

sequential/conv2d/BiasAdd/ReadVariableOp f4 [32]
000000 89 8f b8 bc 4d 62 51 3d 84 42 41 be c3 ea ec bc
       -0.02252938 0.051119138 -0.1887303 -0.028920537
000010 b8 9d 59 be 9e 04 0c bd 03 52 38 be c5 90 54 bd
       -0.21251571 -0.03418409 -0.18000035 -0.051895875
000020 d4 35 34 be 88 5c 65 be 0e 24 b3 bd e4 b6 bb bd
       -0.17598659 -0.22398579 -0.08747111 -0.09165743
000030 7c 17 25 be 1e 33 a2 bd ce 60 1b 3d 13 d3 b7 bc
       -0.1612224 -0.07919906 0.037934117 -0.022439515
000040 b6 6d 03 bd 8e 3c 35 bd 26 8a 33 be 06 8e e9 bc
       -0.03208705 -0.044247203 -0.17533168 -0.028510105
000050 11 5e 4f 3d c4 e6 92 bd 83 3f e6 3d eb a5 62 bd
       0.050626818 -0.07172921 0.11242583 -0.055334013
000060 45 38 39 bd aa 14 4c bd a2 7f 8a be 5c c6 df 3d
       -0.04521968 -0.049824394 -0.270505 0.10926506
000070 6c 0b c8 bd 91 29 ff bd 4b 7a 02 3c 52 83 21 bd
       -0.097678035 -0.124591 0.007963727 -0.039431877

sequential/conv2d_1/BiasAdd/ReadVariableOp f4 [64]
000000 5b f8 4c bd 9d a8 a3 bd 3a 08 2f 3d b1 9d 14 bd
       -0.050041538 -0.07991145 0.042732455 -0.0362832
000010 ef ed 23 be ec 93 29 3d ce f4 32 bd 78 df f4 bc
       -0.16008733 0.041400835 -0.043690495 -0.029891714
000020 f9 a4 37 bd 22 8f a4 bd e8 b0 9a bd 85 36 9b 3d
       -0.044835065 -0.08035113 -0.075532734 0.07578758
000030 c6 75 89 bd 6b de db bd 9a bf 0d bd e0 46 48 bb
       -0.067119166 -0.10735782 -0.034606554 -0.0030559823
000040 e9 42 07 bd 11 6f 09 be 15 33 cc bd b1 dc bc bd
       -0.033022795 -0.13421275 -0.099706806 -0.09221781
000050 a4 16 ab bd 22 60 2f be b2 4b 59 3d 14 d5 19 bc
       -0.08353928 -0.17126516 0.053050704 -0.009389181
000060 58 87 82 bd d3 41 19 bd 2c b0 22 bd 48 f8 de bd
       -0.06373471 -0.03741629 -0.03971879 -0.108872
000070 f8 e7 e8 3a 80 e0 7f bd 63 06 af bd d3 ef 5f bd
       0.0017769327 -0.06246996 -0.0854614 -0.054672074
000080 a7 d2 fb bd d2 48 28 bd 42 9a d5 bc 81 a4 f8 bc
       -0.12296038 -0.04108507 -0.026074532 -0.03035188
000090 1b 37 55 bd 05 4c cc bd 8e 00 dd bc 92 fb 15 be
       -0.052054506 -0.09975437 -0.026977804 -0.14646748
0000a0 c7 b7 72 bd d9 88 dc bd 3c f0 02 be c4 3c 31 bd
       -0.059257295 -0.10768289 -0.12786955 -0.04327084
0000b0 1a 2c a7 bd 52 aa a0 bd 4a 55 d2 bd 4b be 62 bd
       -0.081627086 -0.07844986 -0.10270174 -0.05535726
0000c0 f4 60 12 be 55 f1 ab bd 0b c7 e2 bc 09 10 f6 bd
       -0.14294797 -0.0839564 -0.027682802 -0.12014777
0000d0 50 84 d9 bd 51 f7 f1 bd 47 f7 28 be 74 bb cb bd
       -0.1062094 -0.1181475 -0.16500579 -0.09947863
0000e0 a5 3b df bc 1e 48 ea bd aa 64 0d be 66 6c 5e 3c
       -0.02725012 -0.114395365 -0.13807932 0.013575649
0000f0 02 d6 93 bd 20 2b 94 bd 88 98 9b bd ef b0 b0 bd
       -0.07218553 -0.07234788 -0.075974524 -0.086274974

sequential/conv2d/Conv2D f4 [32, 3, 3, 1]
000000 1b e6 d0 bd 9e a0 9d 3d ff 1b cb be 2c 8c 38 3e
       -0.10200139 0.07696651 -0.39669797 0.18022221
000010 3b 0c 24 3e 21 54 a6 be 32 7e 6f 3e a4 ea 52 3c
       0.1602029 -0.3248606 0.23387983 0.0128733255
000020 6a e6 13 3c bf bb ca be b8 18 a9 be 5d da 87 be
       0.009027103 -0.39596364 -0.3302667 -0.26533785
000030 7a 24 69 3d 8d 21 58 3d 91 05 2a be f8 f8 7e 3e
       0.056919552 0.05276637 -0.16603686 0.24899662
000040 00 5c 5c 3d 0c f9 88 3e 34 a6 82 be 8e 55 03 be
       0.053798676 0.26752508 -0.25517428 -0.12825605
000050 b7 f9 2a 3e c8 42 be bd 8c 45 32 3e eb 57 8e 3e
       0.16696821 -0.09290081 0.17409343 0.2780145
000060 7d 11 99 3d 28 f1 0a 3e c1 c8 78 be 96 bc 31 3e
       0.07474039 0.13568556 -0.24295332 0.17357096
000070 7b 15 8d 3e 29 bb c9 3e e2 91 0a 3e f0 b6 ec 3c
       0.2755545 0.39400604 0.13532212 0.028895825
000080 5a 05 09 be a1 39 34 be cd 50 c3 be 1c 57 dc be
       -0.13380948 -0.17600109 -0.38147584 -0.4303521
000090 15 68 8f 3d f1 87 4c 3d 8d 64 0e bd c3 e7 c5 bb
       0.07002274 0.04993433 -0.03476386 -0.006039591
0000a0 19 ca 06 be 61 87 20 be fd 7a 19 3d 4a c3 7e 3d
       -0.13163032 -0.15676643 0.037470806 0.06219796
0000b0 14 71 49 3d a1 a7 d9 bc 76 a8 90 be 08 3b 7a be
       0.049180105 -0.02656919 -0.28253525 -0.24436581
0000c0 cf f4 fe 3d 86 09 1b bd 5a 7f 14 3c 4e d7 19 3e
       0.12449037 -0.03785088 0.009063566 0.15023538
0000d0 55 e1 5d 3d 1e 73 22 3e 1b 29 c0 3d 9d 50 56 be
       0.05416997 0.15864226 0.0938284 -0.20929189
0000e0 c0 1c ba be 83 82 17 3e 78 66 9b 3c c3 13 a6 3d
       -0.3635006 0.1479588 0.01896976 0.08109238
0000f0 49 7d b1 3c 9b a5 19 3e 8f ea 0f 3e b5 0b b7 bd
       0.021666186 0.1500458 0.14054321 -0.0893778
000100 ce e3 2f 3e db b5 b4 be 96 b0 10 bd 18 e1 b4 3e
       0.17176744 -0.35294995 -0.035324655 0.35327983
000110 e6 c4 c1 be 44 c7 98 bd 2d 48 86 3e 5e 82 1a bd
       -0.37845534 -0.07459882 0.2622694 -0.037721984
000120 34 3b f4 bd f4 ff c5 3d 21 7f 17 3e 79 4b c4 bd
       -0.119253546 0.0966796 0.1479459 -0.09584708
000130 c4 9e 48 3e db 0a 2f 3d 52 5c 01 3e e9 75 96 bd
       0.19591814 0.042734962 0.12632874 -0.07346708
000140 85 8a a1 be 7f f9 a2 3b fd 19 d9 3d 15 6b 13 be
       -0.31550995 0.00497359 0.1060066 -0.14396317
000150 c4 19 60 bd 6e 3f 64 3d dc 6e 1e 3d fd 08 f6 3c
       -0.054712072 0.055724554 0.038679942 0.030033583
000160 e2 b7 f9 3d 93 ab 4c bd d5 75 9f be 29 41 8f be
       0.12193276 -0.049968313 -0.31144586 -0.279794
000170 00 90 8b bc f5 c5 8c be f7 8d d9 3d 66 b5 95 3e
       -0.017036438 -0.2749478 0.10622781 0.2923996
000180 f9 91 54 3e bd c4 63 3e bd c7 71 3d 49 5a f5 bd
       0.20758809 0.22243018 0.059028376 -0.11980111
000190 0a 13 96 3c 2f d5 96 bc ed c5 dd bc ce 43 ba 3d
       0.018319625 -0.0184122 -0.027071917 0.09094964
0001a0 64 d9 4a be 4a 54 13 be bc 8e 39 3e 5f 54 9b 3d
       -0.1980949 -0.14387622 0.18120855 0.07584452
0001b0 fc cb 6b bd 63 0e 29 bd 9f 3f c2 3d cf 0b db 3d
       -0.05756758 -0.041273486 0.09484791 0.10695612
0001c0 aa 1c 0b 3e ad 49 d9 3d 86 91 19 3e 13 09 07 be
       0.13585153 0.10609756 0.14996919 -0.13187055
0001d0 77 ff 82 be a3 a3 64 be b6 3f 72 3d d2 36 d4 3c
       -0.2558553 -0.22328047 0.05914279 0.025905047
0001e0 bc ca bc 3d 3b 1e 89 3e 40 ee 0a 3d 7b 3e cb bd
       0.09218356 0.26780877 0.03391862 -0.099240266
0001f0 1b 76 f4 3d 04 bd 70 be cf a7 c8 bd 96 55 0d be
       0.11936589 -0.23509604 -0.09797632 -0.1380218
000200 51 82 85 be 69 aa 18 be a2 67 62 be 93 1e 15 be
       -0.26075986 -0.14908756 -0.22109845 -0.14562444
000210 18 73 7e 3e f6 1d 0d 3e 2f 6d 71 3e 59 e7 b1 3d
       0.24848592 0.1378096 0.23576806 0.08686704
000220 3a 0f bd be ff 9b 83 be 48 06 bf bd 97 81 d1 bd
       -0.3692568 -0.25704953 -0.0932737 -0.102297954
000230 4a 37 66 bd 7b 4b 28 3e 8c e8 a3 3e 96 e1 72 3e
       -0.05620507 0.16435044 0.32013357 0.23718867
000240 ae dc 51 3d fa 82 5f be 55 43 8f bd 6c 90 90 be
       0.051235847 -0.21827307 -0.069952644 -0.28235185
000250 4a 32 25 be a0 f0 4c 3e e8 97 8b 3e 19 e0 85 3e
       -0.16132465 0.20013666 0.27264333 0.26147535
000260 f0 60 0e be b6 f8 81 bd 97 70 5c 3e aa 53 32 3d
       -0.13904166 -0.06346266 0.21527325 0.04353682
000270 d6 40 d4 be 30 f0 77 3e 81 9e 9a 3e cd d3 0a bf
       -0.41455716 0.24212718 0.30199054 -0.5422943
000280 92 b8 04 be cc dd e9 3d 97 50 49 be 28 e5 bc bd
       -0.12961033 0.114192575 -0.19659649 -0.092233956
000290 50 ee 2f 3d 3b 22 f1 bd 6a 0b d6 bd 2a 92 1a 3e
       0.042951882 -0.11774107 -0.10451396 0.1509482
0002a0 73 3a 21 3d 4a 92 63 3d da 4b 8d 3d 6d 9d 87 3d
       0.039362382 0.055559434 0.06899233 0.066218235
0002b0 86 e8 aa 3d de 15 06 3e 30 6d b5 bd 52 da a9 3d
       0.083451316 0.13094279 -0.088587165 0.082935944
0002c0 7f 95 4e 3d 09 2b 2e be f8 bf b6 be 97 42 46 be
       0.05043554 -0.17008604 -0.35693336 -0.1936134
0002d0 2a 66 49 3e 27 18 9a 3e d0 d4 87 3e 0d 66 16 be
       0.19667879 0.30096552 0.2652955 -0.14687367
0002e0 c8 52 89 3d b5 22 25 3e 9d 4e e6 be 95 e4 e0 be
       0.067052424 0.16126521 -0.44981852 -0.43924394
0002f0 3e df 3d be 21 5c 9d be 8d a4 22 be d3 3c 5b 3e
       -0.18542191 -0.3073435 -0.15883084 0.21409921
000300 10 eb 68 be 94 ec 9a 3d 57 a5 23 3e fa 1c 89 be
       -0.22745919 0.07564655 0.15981041 -0.2677992
000310 4f 7b 8b bd 98 90 97 3e d6 7b 7b 3e 6a 23 df 3d
       -0.068106286 0.29602504 0.24558958 0.108954266
000320 5c 57 bb be a9 e5 b8 3e dd 35 61 be e2 d6 13 bf
       -0.36590087 0.36112717 -0.21993203 -0.5774976
000330 d2 c1 8a bd de b9 c5 be 82 ae 9f bd 27 93 13 bd
       -0.067752495 -0.38618368 -0.077969566 -0.036029007
000340 91 7a 91 3e 43 60 46 3c 95 36 72 3e bd 0a 98 3e
       0.28413823 0.0121079115 0.23653634 0.29695693
000350 5a 11 ab be 17 5e 1c 3e 88 eb 13 be 50 77 e6 be
       -0.33411676 0.15270267 -0.14445317 -0.45012903
000360 a1 68 19 be e3 8b 8a bd 3a f5 09 3e d1 67 a7 3e
       -0.14981319 -0.067649625 0.13472453 0.32696393
000370 44 98 a2 3e 45 c7 38 bd 98 dc 26 be a0 36 a8 be
       0.31756794 -0.045111913 -0.16295087 -0.32854176
000380 9e fc 64 be c0 83 38 3e 4d 60 30 bd 9b 0d b4 be
       -0.22361991 0.18019009 -0.04306059 -0.3516663
000390 20 75 95 3e 98 89 af bd 20 cb a7 be 07 d1 74 3e
       0.29190922 -0.08571166 -0.3277216 0.23907863
0003a0 99 d4 00 bc 70 a0 01 3d d8 74 80 3d 58 9c 9d 3d
       -0.007863187 0.031647146 0.06272286 0.07695836
0003b0 25 a5 59 3d ab d9 90 3d 70 b5 cf 3c 4f fb 48 bd
       0.05313601 0.07072767 0.02535507 -0.04906779
0003c0 f3 cc 01 3e a8 70 a8 3d 06 ae 21 3a 85 a2 d7 3e
       0.12675838 0.082246125 0.0006167594 0.4211618
0003d0 3a 21 05 be ff 67 c2 be 5c 3d 5e 3c 38 cc 65 bf
       -0.13000956 -0.37969968 0.013564434 -0.8976474
0003e0 70 de 7f 3e be 74 09 bf 16 10 87 bd cb e1 9f 3e
       0.24987197 -0.5369376 -0.06594865 0.31226954
0003f0 0a 26 97 be f2 93 a7 bd d8 81 bf 3b 36 1a 48 3d
       -0.2952121 -0.08182515 0.005844336 0.04885312

sequential/conv2d_1/Conv2D f4 [64, 3, 3, 32]
000000 8b 5a 57 3d 1a 35 88 3e a6 08 c6 3d a2 d0 93 3c
       0.052576583 0.26603013 0.09669618 0.01804382
000010 4b 4a 5a bd f0 a4 25 3e 2c 01 2a bc 38 78 2f bd
       -0.053293508 0.161762 -0.010376256 -0.04283926
000020 37 89 bb 3b 27 5f 64 be 13 9a 36 3e 59 d8 0b 3e
       0.0057231444 -0.22301923 0.17832212 0.13656749
000030 b8 29 08 3e 32 4a ba 3d 84 47 51 3e 2f 04 4e 3e
       0.13297164 0.09096183 0.20437437 0.20118783
000040 27 fd 09 3e 93 75 90 be 0b 50 a8 3d 5e 78 38 bc
       0.13475476 -0.28214702 0.08218392 -0.0112591665
000050 98 43 18 be 6e 32 13 be 50 a1 27 be 5f 05 b2 ba
       -0.14869535 -0.14374706 -0.1637013 -0.0013581923
000060 1e 38 36 3e 92 64 89 bd 55 7a 05 be 66 1c 24 be
       0.17794845 -0.067086354 -0.13034947 -0.16026458
000070 99 62 aa 3e 53 7a 74 be 53 aa 5d 3d a0 d1 c1 bd
       0.3327835 -0.23874788 0.054117512 -0.09463811
000080 8a f4 28 3d 08 24 d4 3d 57 45 22 3d a6 d1 d0 3c
       0.041248836 0.10358435 0.03961691 0.025490593
000090 3e 04 1c be 36 d4 2e be 3c bc f3 bd cb a6 84 be
       -0.15235993 -0.1707314 -0.11901137 -0.25908503
0000a0 40 17 47 3d 92 0f 09 be 23 d5 e8 bb fb 9a a5 bc
       0.048606157 -0.13384846 -0.007105486 -0.020215502
0000b0 45 0f 7e bd f1 b9 35 bd f2 e0 30 3c 11 9e 6a bd
       -0.06202628 -0.04436678 0.010795819 -0.05727965
0000c0 35 16 96 3d ff 8f 90 be 3b 2a d5 bd 7f 06 11 3d
       0.073284544 -0.2823486 -0.104084454 0.035406586
0000d0 db 78 bc 3d 2f 67 40 be 02 b3 6d bd 5f 06 b2 bc
       0.09202739 -0.18789361 -0.058032043 -0.021731554
0000e0 12 87 2f 3e 1e 5a 2c bd ed 18 0d be b0 83 66 bd
       0.17141369 -0.04207813 -0.1377904 -0.05627793
0000f0 d8 50 09 3e 92 7a ab bd c8 26 5d bc 76 73 84 be
       0.13409746 -0.08372988 -0.013498016 -0.2586934
000100 26 80 3f bd 7a ec 86 be 60 97 cb 3d 7d 98 23 be
       -0.04675307 -0.26352292 0.09940982 -0.15976138
000110 9d 44 eb bd 98 91 65 be 6d a0 57 be 90 3c f3 3d
       -0.11487696 -0.22418821 -0.21057291 0.11876786
000120 d5 00 0f be 22 fc a2 bd 8e d4 8f bd 67 fa 9e bd
       -0.13965161 -0.07958247 -0.070229635 -0.07762604
000130 c0 29 0e be 13 39 74 3d f0 c1 71 be 62 60 86 be
       -0.13883114 0.059624743 -0.23609138 -0.2624541
000140 1c 21 65 be 49 21 92 3e 9f 78 b2 3d 84 b8 1a be
       -0.22375911 0.2854102 0.08714413 -0.1510945
000150 ad 61 4a 3d ed e1 32 3e 6a 11 29 bc 49 19 af bd
       0.049409557 0.17468996 -0.010319093 -0.08549745
000160 21 87 09 be c1 30 d0 bd c4 67 51 be 8f b9 49 3e
       -0.13430454 -0.10165549 -0.2044974 0.19699691
000170 b9 9c 6e be 57 71 a7 3d 44 92 9a be c1 fa 68 3d
       -0.23301972 0.08175915 -0.30189717 0.056879763
000180 67 86 84 3d 0c 1c c8 3d 33 79 e1 bd c0 33 84 bc
       0.06470948 0.097709745 -0.11009445 -0.016137958
000190 f4 be 8f 3c fb c3 a6 3d a4 30 87 3d e9 5d 27 3e
       0.017547108 0.08142849 0.06601074 0.16344418
0001a0 7f b8 81 3c e2 f0 94 bd c0 66 56 be f3 72 0b 3e
       0.015835045 -0.07272507 -0.20937634 0.13618068
0001b0 db 62 ad bc a0 26 0b 3d e7 0f 4b 3d 3e 07 bf bc
       -0.021165302 0.033972383 0.049575713 -0.023318883
0001c0 f7 cf b7 bd ca 86 4b bd 94 aa 1a 3c 90 5d 8c bc
       -0.08975213 -0.04968909 0.009440083 -0.017134458
0001d0 fa d8 a4 3c 73 f0 1a be 08 ed be be 48 33 8d be
       0.020122994 -0.15130787 -0.37290215 -0.27578187
0001e0 5d 66 97 3d 9b f6 ee 3c 95 8b c6 bd 28 c7 8f be
       0.07392571 0.029170325 -0.09694592 -0.28081632
0001f0 ae ca d6 3d c8 31 1d 3e fe 94 de bc 17 96 05 3e
       0.10487877 0.15351021 -0.027170654 0.13045536
000200 3d b9 11 3e bd db 98 3e c3 2f 69 be 32 78 10 be
       0.14230819 0.29855147 -0.22772126 -0.14108351
000210 6d 61 55 3d 6b 43 16 3e fb 60 6d 3e 49 ff 96 3e
       0.052094866 0.14674155 0.23181526 0.29491642
000220 e6 bb 22 be 11 4f d8 bc 2b 24 63 bc 57 1b 46 3e
       -0.1589199 -0.02640489 -0.013863604 0.19346367
000230 23 61 f4 bd e1 1b 32 bd aa cf 70 3e f7 d4 3b 3e
       -0.1193259 -0.04348362 0.23516718 0.18342958
000240 1d e0 76 3e 08 1e a3 bd e7 e1 bd bc 5d 7a ec bc
       0.2410893 -0.079647124 -0.023179008 -0.028866941
000250 ce 17 27 be 2e 7c 3c bd 49 fb f8 bd 5c 28 13 bc
       -0.16317675 -0.046016864 -0.12157304 -0.00898179
000260 94 82 00 be 9b 0f 29 3e d7 e8 82 bc 1b 59 62 be
       -0.12549812 0.1650986 -0.015980167 -0.22104304
000270 e2 d1 e9 3b 3d 74 bf 3d eb 4e 88 3e cb 84 46 3e
       0.0071356157 0.093483426 0.2662271 0.19386594
000280 4c 90 85 3c 47 76 22 3d 95 e7 32 bc ca 27 7a be
       0.016304158 0.03966358 -0.010919471 -0.24429241
000290 7e 35 09 bd 03 cd 0a bd 83 ab fd bd bf ce e9 3d
       -0.03349828 -0.03388692 -0.12386229 0.11416387
0002a0 ed d4 4b be 4b 0f 49 be a2 3d 21 3e 55 1a a4 bd
       -0.19905443 -0.1963474 0.15746167 -0.08012835
0002b0 56 44 83 be fd f8 d1 bd da 38 0b 3e e5 9f ea 3c
       -0.25638074 -0.10252569 0.13595906 0.028640697
0002c0 d8 20 58 3e d9 bd 18 3e 89 ae ca 3d bb 0e 6f be
       0.21106279 0.14916171 0.09896571 -0.23345463
0002d0 63 63 5d 3d a8 4b c5 3d 43 bf 0f be 4b 88 08 be
       0.05404986 0.09633571 -0.14037804 -0.13333242
0002e0 3c cf 83 be 57 f5 8b 3d 2d 8c 32 be 5c 25 1c bd
       -0.25744045 0.06833904 -0.17436285 -0.038121566
0002f0 93 0a 05 be 74 94 32 be 52 26 c4 3d 7c a7 07 be
       -0.12992315 -0.17439443 0.095776215 -0.13247484
000300 5c d9 82 be b9 32 4d be f2 c9 12 be 6b 63 ef 3c
       -0.25556457 -0.2003888 -0.14334849 0.02922221
000310 99 e2 8c bd 02 7d 82 be b5 64 5d be d1 81 1c be
       -0.068791576 -0.25485998 -0.21620448 -0.15283896
000320 a3 57 a2 bd ac ac a6 bd c3 6d 6d be 0c 2b c5 bd
       -0.07926872 -0.08138403 -0.23186402 -0.09627351
000330 35 e8 af bd 10 1d 5f bd 02 6a d4 be f1 74 79 be
       -0.08589212 -0.054471076 -0.41487128 -0.24361016
000340 3d f8 4f be 8b 9a 0a 3e 2d 8c fc bd 7b 61 18 3d
       -0.20309539 0.13535516 -0.12331424 0.03720234
000350 ee 1a 07 3e 9b b0 5f bd af 23 71 be 1f a1 9c be
       0.13193867 -0.054611783 -0.23548768 -0.30591676
000360 04 8b 7c bd 41 f5 be be 8a de de bc d0 e5 1e be
       -0.061656013 -0.3729649 -0.027205724 -0.15517354
000370 e4 71 0b be d4 52 1a 3e 18 59 79 be bf 3e 6f bd
       -0.13617665 0.15070659 -0.24350393 -0.05840945
000380 03 c9 33 3e 76 2f c9 bc 9b 69 04 be 81 ea 0a be
       0.17557149 -0.024558764 -0.1293091 -0.13566019
000390 a5 f7 8c bd 68 5b 0e 3e 03 ca 44 3e 9d ec 87 3e
       -0.06883172 0.13902056 0.19217686 0.2654771
0003a0 c2 25 8c bb 94 27 43 3e 99 4d 7d be dd 84 7f bd
       -0.004276962 0.19058067 -0.24736632 -0.062382568
0003b0 08 47 bb bd 0d 11 2c bd 2f 94 73 be 8a 99 0c bc
       -0.091444075 -0.04200845 -0.23786996 -0.008581528
0003c0 e8 ca 81 be eb 75 fc 3d 5f cf f1 3c 70 00 87 3d
       -0.25350118 0.123271786 0.029517828 0.0659188
0003d0 1c b3 ae 3d d5 02 32 3e 04 38 a7 bd cd 53 62 be
       0.08530256 0.17383893 -0.08164981 -0.2210228
0003e0 ee 8f 8c be 96 a0 0d 3e ae c1 b2 3d 34 b8 8e be
       -0.2745356 0.1383079 0.08728348 -0.2787491
0003f0 05 60 60 be f6 33 a5 3e ad a0 4f 3d e3 f8 7e 3e
       -0.21911629 0.32266206 0.05069034 0.2489963

sequential/dense/BiasAdd/ReadVariableOp f4 [128]
000000 6b ae ba bd 9c 9d a0 bd d1 16 e2 bc 7e 72 26 bd
       -0.09115299 -0.078425616 -0.02759877 -0.040636532
000010 80 dc 09 bd fb 44 96 ba c3 7a 99 bd cf 84 1c bb
       -0.03365755 -0.001146465 -0.07494118 -0.002388287
000020 99 08 f6 bb 45 a2 52 3d 59 dd 84 bd f4 ae 9c 3d
       -0.007508349 0.051424284 -0.06487531 0.07650557
000030 27 a1 a1 bc 23 ac c1 bc 34 7f 8a bc 80 21 2c bc
       -0.019730164 -0.023641651 -0.016906358 -0.010506034
000040 58 49 73 bc a2 e0 4d bc 54 07 43 bc e9 cb 8e bc
       -0.0148490295 -0.012565764 -0.011903603 -0.017431216
000050 e8 55 0c bc 1a 55 bf 3d 7a fc 8a bc 06 db 7c 3d
       -0.0085654035 0.09342404 -0.016966093 0.061732315
000060 88 ec 91 3d d4 0f 60 bd 86 13 c1 ba 78 d8 79 bd
       0.07125193 -0.054702595 -0.001473055 -0.060997456
000070 75 45 77 bc f8 17 11 bd 6e 9d 06 3d 62 eb 92 bb
       -0.015092243 -0.03542325 0.03286498 -0.004483626
000080 d3 fe e7 bc 31 aa 83 3d 69 65 fe bc 39 be b0 bc
       -0.028319752 0.06428946 -0.031054216 -0.02157508
000090 08 a7 5d bc 10 20 2c bc 3d 6d 1a bd 4a ad ae bb
       -0.013528593 -0.010505691 -0.037701834 -0.0053307163
0000a0 fb 7a 84 bd a5 a5 83 3c 76 16 dd 3d cf 6d 8a bd
       -0.06468769 0.016070196 0.107953 -0.067592256
0000b0 d3 59 2b 3d 72 6e 0f bd 4b 3f b4 3c 28 b0 91 3c
       0.04183371 -0.03501744 0.022002837 0.017784193
0000c0 83 a7 82 bd e7 3c 94 bc fc ee cd bc 96 b2 47 bd
       -0.063796066 -0.018095447 -0.02513837 -0.048754297
0000d0 f7 1c c1 bc a6 a6 17 bc 08 65 5b bd 15 51 3f 3d
       -0.023573382 -0.009256041 -0.053563148 0.046708185
0000e0 d7 31 ae 3c 3d 6f ba bc f2 71 42 bc 80 14 0b bd
       0.021264 -0.02275812 -0.011867987 -0.033955097
0000f0 e3 ad 48 39 e9 35 3d 3d 8a 2e eb 3c 67 b2 14 bc
       0.00019138264 0.04619399 0.028708715 -0.009075738
000100 4f 06 e9 3c 02 fe 1a bd 6d 7a 1f 3d b5 08 82 bc
       0.028445391 -0.037839897 0.038935114 -0.015873292
000110 af ac de bb d0 86 c6 bb 95 88 12 bd ef 4c 94 bc
       -0.006795488 -0.0060585514 -0.035774786 -0.018103091
000120 cc 78 3b 3d a5 da 96 bd bd b1 01 be f2 a6 f2 bc
       0.045769498 -0.07365922 -0.12665458 -0.029620621
000130 34 6e 07 bd fb a8 71 3d 66 c9 74 bc 09 ef b2 bb
       -0.033064082 0.058999043 -0.014940595 -0.005460624
000140 72 24 fb bc ef ac 9e 3d c4 44 55 3d ef 4b 8a bd
       -0.030657027 0.07747828 0.052067533 -0.067527644
000150 71 e5 19 bd 2a 63 84 bc 2b 37 c3 3d 33 63 4b bc
       -0.037572328 -0.016160566 0.09532007 -0.012413788
000160 fb 96 96 3c 47 85 7f bc ff 4d 18 bd 6e 97 8b bc
       0.01838254 -0.015595741 -0.037183758 -0.01703998
000170 9d be 3f bd 51 d2 ce bc 7b 89 e2 bc c0 05 be bb
       -0.046812642 -0.025246771 -0.027653446 -0.0057990253
000180 e2 3c f9 3c 16 05 c7 3c 08 e9 a4 3d 85 cb 06 3c
       0.030424539 0.024294417 0.0805226 0.008227234
000190 1c 6d 03 bd e8 56 6b bd 0a 4e 8e bc 09 24 91 bc
       -0.032086477 -0.057455927 -0.017371196 -0.017717378
0001a0 a7 69 5d bc c5 5f 03 bd 09 2e d7 bc e9 5e 63 3d
       -0.013513959 -0.032073755 -0.026267068 0.055510435
0001b0 73 1a 6f b9 c2 f9 94 bd 57 d2 d5 bd 7f e4 b2 bd
       -0.00022802669 -0.072742 -0.1044051 -0.087349884
0001c0 45 3c 8e bd 82 60 35 3d 93 67 10 bd c8 11 92 3c
       -0.06945089 0.04428149 -0.035255026 0.017830744
0001d0 4a 01 dd bc 63 e3 4c bd 67 c8 9e bb 9e 3c e4 bc
       -0.026978154 -0.05002154 -0.004845667 -0.027860936
0001e0 89 4f a4 3d c3 f8 a0 bd 3c 1e aa bd 65 f4 3a ba
       0.080229826 -0.078599475 -0.08306548 -0.00071317545
0001f0 8c cf 40 3c b1 19 0f bd 62 3e 4e bd 06 1f 7c bd
       0.011768233 -0.03493661 -0.05035246 -0.061553024

sequential/dense_1/BiasAdd/ReadVariableOp f4 [10]
000000 67 73 df 3c c9 04 a3 3d 13 c2 25 3c 8d 70 99 bc
       0.027276708 0.07959897 0.010117072 -0.018730426
000010 06 98 09 3c b4 5f 33 bd f1 fc a8 bd a9 52 46 bc
       0.008398062 -0.04379244 -0.0825137 -0.012104669
000020 8e 37 a7 3d 9c 4c 4c bd
       0.08164893 -0.049877748

sequential/dense/MatMul f4 [128, 1600]
000000 e3 fd b9 bc f4 18 6d bc 1b 15 9f bc ff f9 4d 3d
       -0.02270407 -0.014471281 -0.019419244 0.050287243
000010 14 9f 92 bd 84 8b 35 bb 40 1e 5d 3c 8a b6 8a 3d
       -0.07159248 -0.0027701566 0.013495982 0.06773098
000020 a3 e1 2c bd bd 76 2d bd f0 42 98 3d 3c 53 9d bd
       -0.04220737 -0.042349566 0.07434642 -0.07681891
000030 ac 01 c6 bd 9b e8 6c bb d5 ea 2b 3e 05 67 a5 bc
       -0.09668288 -0.0036149386 0.167888 -0.020190725
000040 31 91 bd bd 08 f2 e3 3a 90 33 8f bd 68 03 be 3b
       -0.09256209 0.0017390857 -0.06992257 0.005798746
000050 42 2b 34 be 8b 33 7b bd 28 7b a1 bc 71 50 9a bc
       -0.17594627 -0.061328452 -0.019712046 -0.018837186
000060 23 0d 95 3c 41 36 17 3e cf 51 d4 3c 27 81 47 bb
       0.01819474 0.1476679 0.025917916 -0.003044197
000070 f2 cd 3c 3d 86 87 58 3d bf 08 aa 3c c5 70 d8 bd
       0.046094842 0.05286362 0.020756124 -0.10568384
000080 b3 28 56 3d de 89 0f bd d1 74 92 bc 97 54 35 bd
       0.052284908 -0.03504359 -0.017877968 -0.044270124
000090 f0 f8 62 be 2f 38 e0 bd 9b 09 e1 3d 29 b5 b1 3c
       -0.22165275 -0.10948216 0.1098816 0.02169283
0000a0 da ce 25 bd 34 05 2f 3c ca 34 65 bd bc df 02 3e
       -0.040480472 0.010682393 -0.055958547 0.1278066
0000b0 0b 62 10 3d 0b 17 4a 3a 4d 51 08 bd c0 7a 2c bc
       0.03524975 0.0007709122 -0.03328066 -0.010527313
0000c0 ab 91 65 3b df 2c 0a bc 68 7d 96 bd 13 50 7f bc
       0.0035029452 -0.00843355 -0.07348138 -0.015583056
0000d0 0e 90 cd 3b 9e b8 88 3d 13 20 bd bd d3 85 90 3d
       0.006273276 0.06675838 -0.09234633 0.07056775
0000e0 d4 69 57 bc 8e f8 8c 3d 4b 53 d2 bd c2 96 ba 3d
       -0.01314779 0.068833455 -0.10269793 0.09110786
0000f0 05 f4 33 3d 9e d9 d5 bd 84 4e 97 3d 1d 88 81 bd
       0.043933887 -0.10441898 0.073880225 -0.0632479
000100 fe c9 07 bd f8 84 0a 3d 45 12 cb bd 01 01 fd bd
       -0.03315162 0.033818215 -0.09915594 -0.12353707
000110 df 8c 32 3d ea 42 05 bd 5e b4 df bd e0 d7 de 3d
       0.043591376 -0.032534517 -0.10923074 0.10881019
000120 1f 7c 5c 3d 15 5e 21 bd 15 9f 85 3c 36 c5 56 be
       0.05382931 -0.039396364 0.016311208 -0.20973668
000130 3f 82 a0 3d dd 28 f4 3d 93 08 60 bd d3 9b fe 3c
       0.078373425 0.119218566 -0.054695677 0.031080162
000140 b0 0a c0 3d 15 60 71 3d 58 0b 3f 3c 47 eb 42 bd
       0.093770385 0.05892952 0.011660419 -0.04758766
000150 a2 0d b5 bb 51 f1 06 3d 13 f0 84 bc 62 c6 7f 3d
       -0.005525307 0.03294498 -0.016227758 0.062445052
000160 38 53 fc 3c 79 9d cd bd 3c be 5b bd b5 18 43 bc
       0.0308014 -0.10039801 -0.05364822 -0.011907746
000170 94 14 85 bd 8c 34 f5 bb b3 83 d3 3d 70 2b a1 bd
       -0.064980656 -0.0074830707 0.10327854 -0.07869613
000180 8a 1f 0e 3d 14 45 07 be a1 3c 8c bd 43 3c e5 bb
       0.034698047 -0.13209945 -0.068475015 -0.006995709
000190 71 cd 9c bd 2d 46 6f bd 60 3e 2b 3d 5c a7 ec bd
       -0.07656372 -0.058416534 0.041807532 -0.11555359
0001a0 fb 03 d0 bd ae ca 26 3d 44 36 96 3c d2 02 46 3e
       -0.10157009 0.040720634 0.018336423 0.19337013
0001b0 39 8b 29 bd 59 17 59 3c 42 f4 21 bc 00 8f a6 bd
       -0.04139254 0.013250195 -0.009884896 -0.08132744
0001c0 60 bc 0d 3d 4a a9 ce 3d 6e 80 79 bc c9 d1 4b 3e
       0.034603477 0.10090883 -0.015228374 0.19904245
0001d0 b2 72 b5 bd 95 d6 12 bd 68 64 92 3d 8f 45 0d be
       -0.08859767 -0.035849173 0.07148057 -0.13796066
0001e0 aa fe 93 bd c3 45 4d 3d 30 4d 01 3e ef 4a cf bb
       -0.07226308 0.050115358 0.12627101 -0.0063260715
0001f0 90 17 8f 3d 71 4e 6e bc 29 19 26 bc 44 19 5a bd
       0.06986916 -0.014545069 -0.010137835 -0.05324675
000200 b5 33 af bd d3 8f 07 be 50 df b0 3d 4c bd 81 3c
       -0.08554784 -0.13238458 0.086363435 0.015837334
000210 a7 75 59 3c a4 14 78 3d c2 ad 44 be 39 e3 1a be
       0.013272679 0.06056656 -0.19206908 -0.15125741
000220 33 8f e8 3d 76 3c 11 3d b3 db 15 3e 9a d5 f5 bd
       0.11355438 0.03545805 0.1463459 -0.12003632
000230 38 de 4d bc a8 30 9a 3b 50 12 04 3d c1 50 0e bd
       -0.012565188 0.0047055073 0.032244027 -0.03474498
000240 5c 7a 3d be 98 0a 45 be 04 31 38 bc f0 d7 c9 3d
       -0.18503708 -0.19242322 -0.011242155 0.0985564
000250 cd 76 01 3e 36 ba 9e 3d cd 14 06 be 2d 7b 88 3c
       0.12642975 0.07750361 -0.13093872 0.016660297
000260 d8 55 07 3e 9c a2 9f bd a5 67 17 bd 71 d5 22 be
       0.1321634 -0.07794687 -0.036964078 -0.15901734
000270 a4 0f 4a 3d b5 06 57 bc a0 74 e2 bd 2f 11 c7 3d
       0.049331322 -0.013124158 -0.11057401 0.097200744
000280 a0 72 1d bd 8c 39 5c bd 69 a5 4f bb 1b 96 ae bc
       -0.038439393 -0.05376582 -0.0031684285 -0.02131181
000290 2d 3d b0 3d 09 56 29 bd fa 44 bb bd 66 1b 03 3d
       0.08605418 -0.041341815 -0.091440156 0.03200855
0002a0 8f b6 8b bb 65 00 fe bd fc 8a 7c bd da 51 8a bc
       -0.004263706 -0.12402419 -0.061655983 -0.016884733
0002b0 76 ce c1 3c d6 87 14 3e 83 02 13 3d 4f e0 05 3e
       0.023658019 0.14504942 0.035891067 0.13073848
0002c0 26 0c 44 be ba a5 db 3c 9c 1d c3 bd d9 49 33 bd
       -0.1914526 0.026812423 -0.09527132 -0.0437716
0002d0 c5 c7 0d bd 85 74 23 be 5f b2 93 bc bd 6a 65 bd
       -0.034614343 -0.15962417 -0.01802939 -0.056009997
0002e0 1c 3b ba bc 95 b0 60 3d d2 b1 0c be d1 c9 ab bd
       -0.022733264 0.0548559 -0.13739708 -0.08388103
0002f0 6b 06 9a 3d e5 d7 99 3d 88 18 ab bd 30 50 eb 3d
       0.075207554 0.07511882 -0.08354288 0.11489904
000300 c8 34 ea 3d de d0 5f be 09 33 03 be 33 be ea 3d
       0.114358485 -0.2185702 -0.12812437 0.11462059
000310 3b 21 3a be 9f b4 f7 bc 11 b1 75 3d 8d 81 db 3c
       -0.18176739 -0.030237494 0.059983317 0.026795173
000320 c0 0c 26 be af 82 ec 3c 50 2b 48 bd 8a 1d b5 3d
       -0.16215801 0.028870909 -0.04886943 0.08843525
000330 5c be d1 3d fc 88 0b be d0 8c ae 3c dd fd 2e bc
       0.10241386 -0.13626474 0.021307379 -0.010680643
000340 ae 66 2f bd f7 68 5d be 6e 51 01 be c0 bd 40 be
       -0.042822532 -0.21622072 -0.12628719 -0.18822384
000350 10 62 9c 3d 46 85 5e bd 0e 2b 9e 3d 20 82 7e bd
       0.076358914 -0.05432632 0.07723056 -0.062135816
000360 48 86 71 bd 4c cc 2f be 9b 9c 13 bd df 49 18 3e
       -0.05896595 -0.17167777 -0.036038022 0.1487193
000370 1f dd 48 3d 96 7c 43 3c f1 03 1e be f3 bf 17 3e
       0.049039003 0.011931559 -0.15431191 0.14819317
000380 6b 6b c9 bd ed f5 6a 3c 4c 28 4a ba ec 83 15 bd
       -0.098349415 0.01434086 -0.0007711693 -0.036502764
000390 fc 2a 05 3e dc 55 c2 3c d1 40 1b be 6b 58 d8 bc
       0.13004678 0.023722582 -0.15161444 -0.026409348
0003a0 60 3b a1 3d 90 45 c4 bd 3d 47 8d bd 48 23 98 bd
       0.07872653 -0.095835805 -0.06898353 -0.07428604
0003b0 ab 64 c1 3d c2 8f e8 3c 47 36 09 bd bc c8 21 3e
       0.09443029 0.028388862 -0.03349903 0.1579923
0003c0 39 b7 ee bd 35 e2 77 be 9c ac 4e bd 7b d1 10 be
       -0.11656041 -0.24207385 -0.050457582 -0.1414241
0003d0 fa 98 3e bd 2b 6b 4e be e4 7e 98 bc 00 47 30 bd
       -0.04653261 -0.20158069 -0.018615194 -0.04303646
0003e0 5d c2 de bc 6a dc 86 3d d4 72 18 be 60 40 d9 bc
       -0.027192289 0.065850094 -0.14887553 -0.026519954
0003f0 b5 0b cc 3c 81 b5 4a be bc 75 2c 3d 43 6b 62 bd
       0.024907926 -0.19795801 0.042104468 -0.055278074

sequential/dense_1/MatMul f4 [10, 128]
000000 27 24 43 3d ca b9 c1 be 13 e2 90 3d 5e a7 a6 be
       0.0476419 -0.37837058 0.0707437 -0.32549566
000010 3f b7 26 3e 84 23 4e be 95 24 e8 bd b8 6c d5 be
       0.1628084 -0.20130736 -0.113351025 -0.41684508
000020 59 04 03 3c fc d1 f3 3d 5b 07 6a 3e f3 dc 46 3d
       0.007996642 0.11905286 0.22854368 0.048550557
000030 44 0e 35 bf 39 82 b2 bd 5b 47 da 3d 7e 7e 2c be
       -0.7072489 -0.08716244 0.10658141 -0.16845128
000040 4f 5a 60 3b fc a4 1e be ec 6b f7 bd 6c 04 46 be
       0.0034233516 -0.15492624 -0.12081131 -0.19337624
000050 1b c6 42 3e 67 36 ec 3d 2e 2e e0 bd 56 26 87 be
       0.19020884 0.11533814 -0.10946308 -0.26396435
000060 fc 9b 7c 3d 61 9a 8b 3d 33 43 ef 3d aa 00 80 be
       0.061672196 0.06816555 0.11682739 -0.25000507
000070 7c 8b c3 bd 02 95 d4 bc a5 42 4c be d5 71 1c 3e
       -0.09548089 -0.025949959 -0.19947298 0.15277798
000080 5e db 06 bf ce cb 28 3c ad 11 f9 bc 73 ae a0 3d
       -0.5267848 0.010302497 -0.030403936 0.078457735
000090 fe f1 0e 3e 5e ff 07 be b8 6e 38 be 05 15 11 3e
       0.139595 -0.13281009 -0.18010986 0.14168175
0000a0 80 c1 b8 bc 57 a6 fd be ab 93 90 3e ef 3c d7 bd
       -0.022553205 -0.4954097 0.28237662 -0.10509669
0000b0 a7 b8 3f bc 56 d7 47 3e 3f 5a f3 3d 49 56 21 be
       -0.011701739 0.19515738 0.118824475 -0.15755571
0000c0 0f 0c 8f 3e 63 7a d2 be df c5 c1 bd dc d1 f5 3d
       0.27938887 -0.41109 -0.09461569 0.12002918
0000d0 c1 9d 5d bc 70 20 1b 3e dd 86 23 bd 69 d1 0f 3e
       -0.013526381 0.15149093 -0.039923538 0.14044727
0000e0 69 d4 77 bd 46 a7 99 3e 9e a5 1b be 39 dc 4c bd
       -0.060505304 0.30010432 -0.15199897 -0.05001471
0000f0 10 3f 5a 3e 17 24 27 3e b4 d1 4d 3e 9f 46 09 be
       0.21313119 0.16322361 0.20099527 -0.13405846
000100 46 30 e8 3d df be c6 be a3 09 be be 28 f6 21 bc
       0.113373324 -0.38817498 -0.37116727 -0.009885348
000110 6a 83 ef 3d 8e b2 0f bd b2 55 a5 3d aa 33 04 be
       0.11694987 -0.035082392 0.08072986 -0.12910333
000120 37 94 f4 bd f3 12 4e 3d 3c 35 19 be 0c 1d 8d 3d
       -0.11942332 0.05031104 -0.14961714 0.06890306
000130 b3 ff 3e be 68 87 5b 3e ed 2c 6a bc e8 6d 30 3e
       -0.18652229 0.21438372 -0.014292938 0.17229426
000140 68 6f fa bd b1 a9 89 3e 9d dc 3e be cb ea e3 3a
       -0.1222828 0.26887277 -0.18638845 0.0017388699
000150 7d 75 ce be 4a 4a 43 3e dc 1c fe 3d 6b ee 6e 3d
       -0.4032401 0.19071308 0.12407848 0.05833284
000160 1b d2 e3 be 42 03 0e 3e 3c d6 03 be 5f 1b 01 3e
       -0.44496235 0.1386843 -0.12874693 0.12608097
000170 bd fc 0a 3c 98 fc e9 be bf b8 11 3e 47 a4 8e 3d
       0.008483109 -0.45700526 0.14230631 0.06964927
000180 af e4 24 be 3b 53 35 3e e1 13 51 3e 55 ef 69 be
       -0.16102861 0.17707531 0.2041774 -0.22845204
000190 5e 89 da bb ac 85 47 3e 55 f4 3b bd 27 91 cc bc
       -0.0066692075 0.19484586 -0.04588731 -0.024971558
0001a0 e7 66 3d 3e 91 a8 24 3e 55 82 f5 bc b8 c8 b2 3d
       0.18496285 0.16079928 -0.029969374 0.0872969
0001b0 4c 28 e5 bd 4a 6c 46 3d 2d ee 09 be 38 a3 e7 bc
       -0.11189327 0.048443116 -0.13469763 -0.028276071
0001c0 c5 91 05 bf a7 29 29 be 4f 16 4b be ce 09 6c be
       -0.5217555 -0.16519795 -0.19832729 -0.23050615
0001d0 b8 72 a0 3d 13 23 a6 3e 63 22 01 3e e6 d7 4e 3e
       0.07834381 0.32448635 0.12610774 0.20199546
0001e0 ad 3a 5b 3e eb 81 41 be 3a 0e 03 be d7 37 8f be
       0.21409102 -0.18897216 -0.12798396 -0.2797229
0001f0 9f c4 76 3d ff 82 35 3e ae ad ba be cc ce db 3d
       0.060246106 0.17725752 -0.36460632 0.10732803
000200 14 af b1 3c c9 9a 86 be 76 7f 0d be 42 e8 38 be
       0.021689929 -0.26289967 -0.13818154 -0.1805735
000210 58 36 e6 bd 8f c9 9c 3d d8 cb c1 bd 89 af f4 bd
       -0.11240834 0.07655632 -0.09462708 -0.11947543
000220 ab 43 23 be 1b 40 17 3e 44 33 fa be ea 54 75 3e
       -0.15943782 0.14770548 -0.48867238 0.23958173
000230 c9 a9 e0 bd dd 82 9e be ea 6d ff 3c 79 a0 b9 bd
       -0.10969884 -0.30959216 0.03118034 -0.09063811
000240 d6 8a 52 3e 5b 25 2b be 80 73 a6 3d fd 40 21 bd
       0.20560774 -0.16713469 0.081274986 -0.03936862
000250 2a 90 01 bc b9 d3 ad 3d 01 f3 00 3e ee 40 80 3e
       -0.007907907 0.084876485 0.12592699 0.25049537
000260 21 e5 8f 3d ea 7b 8b be 4e 5b 88 be 8e 35 42 be
       0.07026125 -0.27242976 -0.2663216 -0.18965742
000270 ba 1d 94 3c ec ce 41 bd 83 d3 03 3e ca 8e 6d bd
       0.018080581 -0.047316477 0.12873654 -0.057997502
000280 04 dd bb bd 3a 00 25 3e 1f e0 a3 be ce 43 d6 bd
       -0.09173015 0.16113368 -0.32006928 -0.104621515
000290 26 ee 24 be 1e c1 18 be f7 13 bf 3e 8d 47 1a be
       -0.16106471 -0.14917418 0.3731992 -0.15066357
0002a0 54 6a a0 be 09 54 d5 3d ff 53 bc 3e b7 84 50 be
       -0.31331122 0.10416419 0.36782834 -0.20363127
0002b0 54 06 3d 3e a9 34 83 3c d4 f2 9a be 79 5a ba bd
       0.18459445 0.016016321 -0.30263388 -0.090992875
0002c0 5a 0f 97 bd 54 b5 89 be 43 cc 2c bd 61 d9 fa 3b
       -0.07375975 -0.26896155 -0.042186987 0.007655308
0002d0 dd 54 99 be f5 2e e5 3d 02 c2 85 be c1 6d b3 3d
       -0.29947558 0.11190597 -0.2612458 0.08761168
0002e0 83 0f 98 be 08 56 43 bc 31 99 3f be e7 22 a0 bc
       -0.29699335 -0.011922367 -0.18710782 -0.019547893
0002f0 cb 91 20 bf aa 62 c7 bd 17 74 56 be d9 fe a5 3d
       -0.6272246 -0.097356156 -0.20942722 0.08105249
000300 ab 68 f0 3d cc f7 76 bd c7 82 b1 bc f2 45 39 be
       0.11738714 -0.06029491 -0.021668805 -0.18093088
000310 ad 2b c2 bd 6e 12 a0 3c 18 e7 e0 3a 86 cf 3e be
       -0.09480987 0.019540038 0.0017158715 -0.18633851
000320 1f c0 c3 3d 6d a8 4d be 58 46 39 be 1b ce 8a be
       0.095581286 -0.2008378 -0.1809324 -0.2711037
000330 ca a9 ec bd f6 9d 8f be c4 64 50 3e f2 11 45 be
       -0.11555822 -0.28050202 0.20350939 -0.19245127
000340 69 33 80 bd f5 f6 a8 3e d7 e4 13 3d 74 7a bb 3d
       -0.06259806 0.33000913 0.03610691 0.091542155
000350 28 d1 b0 3d 3d 3c 7d bd 9b 86 8b 3d 4a fe 4a 3d
       0.086336434 -0.061825026 0.06812783 0.049558915
000360 a5 f0 13 3e 7f 34 b8 3e 6e dc 40 3e e6 58 d6 bd
       0.14447267 0.3597755 0.18834087 -0.10466175
000370 f4 ee dd bc be d4 17 3e 42 64 77 3d 90 8f bf 3c
       -0.02709148 0.14827248 0.060398348 0.023383886
000380 9e 1c c4 3d 6f 1c 0c be 1e 08 30 3e 8c 0f 6e 3e
       0.09575771 -0.13682722 0.17190596 0.23248118
000390 46 64 13 3e 6a 5e 7a 39 c8 6d 6b bd 44 f2 18 3e
       0.1439372 0.0002387703 -0.057477742 0.14936167
0003a0 0e 8d f5 be 23 f3 ae be 50 66 fe bd 9b 95 65 3e
       -0.4795918 -0.34169874 -0.12421858 0.22420351
0003b0 12 d2 26 3e 27 95 b5 be 34 b4 08 be cc b3 23 bd
       0.16291073 -0.35465357 -0.13349992 -0.03996639
0003c0 86 b8 c0 3b 49 ba 62 3d 38 f9 13 be a8 8f 6a 3e
       0.005881372 0.055353437 -0.14450538 0.22906363
0003d0 09 60 d0 be e4 27 53 be 06 3a 6c bd 0e 9b 95 3e
       -0.4069827 -0.20620686 -0.057672523 0.2921986
0003e0 24 6c 9d 3e ac f0 90 be 8d a4 6c be b3 d8 18 be
       0.30746567 -0.28308618 -0.23109646 -0.14926414
0003f0 8e 48 8f bd 30 52 15 bd a9 dd d4 bc c3 8d b9 be
       -0.069962606 -0.036455333 -0.025984602 -0.36240968
