app/src/main/assets/blank_detection_model.tflite (tflite, 905228 bytes, 8 tensors)

sequential_75/conv2d_525/BiasAdd/ReadVariableOp f4 [32]
0	0xbb8fe82d	-0.004391691
1	0xbb3c32b3	-0.0028716743
2	0xbc777fb3	-0.015106129
3	0xbbf5e522	-0.0075041214
4	0xba60be61	-0.00085732905
5	0xbc14611e	-0.009056358
6	0xbc5c5067	-0.013446904
7	0xbc1f9e7b	-0.0097423745
8	0x3c9136e5	0.017726371
9	0x3cc7fa64	0.024411388
10	0x3d6772e1	0.05650604
11	0xbc706ef3	-0.01467489
12	0xbc0cc1bb	-0.008591111
13	0xbb90bc10	-0.00441695
14	0xbbba2dc0	-0.0056817234
15	0xbb1a59a8	-0.0023551974
16	0xbb168d7c	-0.0022972515
17	0xbc17230c	-0.009224664
18	0xbbf0b869	-0.007346202
19	0x3d40b879	0.047050927
20	0xbc281b29	-0.010260382
21	0xbc195b79	-0.009360188
22	0xbb3d618b	-0.0028897251
23	0xbb64da2a	-0.0034920075
24	0xbc6a272b	-0.014291565
25	0xbb75aa48	-0.0037485529
26	0xbbc79eeb	-0.0060919425
27	0xbc12f30b	-0.008969079
28	0xbcb3788e	-0.02190807
29	0x3bea4d26	0.00715031
30	0x3d30f9f9	0.043207143
31	0x3e0493aa	0.12946954

sequential_75/conv2d_526/BiasAdd/ReadVariableOp f4 [64]
0	0x3c702c2d	0.01465897
1	0xbd8a4d95	-0.06753079
2	0xbcf1ddcc	-0.029524706
3	0x3b5299af	0.003213506
4	0xbb863e50	-0.0040967837
5	0xbdef51a0	-0.116854906
6	0x3c84b739	0.016200649
7	0x3cd6050d	0.026125455
8	0x3d1d7670	0.03844303
9	0x3c9ed576	0.019388895
10	0xbcc853cc	-0.02445402
11	0x3d00767d	0.031363
12	0x3dd35831	0.103195556
13	0xbcacf540	-0.021113038
14	0x3d804390	0.062628865
15	0x3d1ede1a	0.03878603
16	0x3b2818a4	0.0025649453
17	0xbd2879dd	-0.041131843
18	0x3c8fc276	0.01754878
19	0x3d99f41e	0.07517265
20	0xbd662334	-0.056185916
21	0x3b18303a	0.0023222105
22	0xbc7e462d	-0.015519661
23	0x3d7a57e1	0.061118964
24	0xbcde5c57	-0.02714364
25	0xbc4dcd4e	-0.0125611555
26	0xbdada2ed	-0.08478341
27	0x3a7316d8	0.00092731183
28	0xbc92e1f1	-0.017930003
29	0x3d04a8e8	0.032387644
30	0x3ca51bbb	0.020154824
31	0x398ff4f6	0.00027457596
32	0xbbc5ed77	-0.006040271
33	0xbc7a9f46	-0.015296763
34	0xbc330bb9	-0.010928088
35	0x3d607fd8	0.05480942
36	0x3b6c1ed7	0.0036029124
37	0xbdfb6fd3	-0.12277188
38	0xbd67e37f	-0.05661344
39	0x3c6e8216	0.014557382
40	0xbe2e14f9	-0.17000188
41	0x3d6ead4b	0.058270734
42	0x3c5c2be2	0.013438197
43	0xbd3304cb	-0.043705743
44	0xbd91bb20	-0.071157694
45	0xbd238e73	-0.039930772
46	0x3d91e35c	0.071234435
47	0xbbb54bee	-0.005532733
48	0xbaea5941	-0.0017879383
49	0xbc4111d1	-0.011784033
50	0xbe3c7b27	-0.18406354
51	0x3c58a42e	0.013222737
52	0x3d3a45aa	0.045476593
53	0x3d78566a	0.060629286
54	0xbd126a8e	-0.03574615
55	0xbd7f95fa	-0.06239889
56	0xbcfcd338	-0.030862436
57	0xbd8f520b	-0.0699807
58	0xbce6f42f	-0.028192608
59	0x3cfd2c09	0.030904787
60	0xbd4e98b3	-0.050438594
61	0x3d67ad81	0.05656195
62	0xbe2614e5	-0.16218908
63	0x3d96e175	0.07367221

sequential_75/conv2d_525/Conv2D f4 [32, 3, 3, 1]
0	0xbe2e2253	-0.17005281
1	0x3de73d0b	0.1129094
2	0x3e556cc6	0.20842275
3	0xbeb4fe43	-0.35350236
4	0xbdbf0ce2	-0.09328629
5	0x3ec3fecc	0.38280332
6	0xbec23ce1	-0.37937072
7	0xbd7e89e1	-0.06214321
8	0x3eb6d02d	0.357057
9	0x3dd8c37f	0.10584163
10	0x3e81dcf6	0.25363892
11	0x3dd0c0d9	0.10193033
12	0x3e19ea2b	0.15030734
13	0xbde5c89d	-0.112199046
14	0xbe8cc5e8	-0.2749474
15	0x3dcba0ce	0.099427804
16	0x3d722242	0.059114702
17	0xbdfeff7f	-0.12451076
18	0x3c91be66	0.017790984
19	0x3d7eb412	0.062183447
20	0x3d47d597	0.04878768
21	0x3e1158b2	0.14193991
22	0x3e0c4603	0.13698582
23	0x3da00be6	0.078147694
24	0x3e4ab69d	0.19796224
25	0x3d2577dc	0.04039751
26	0xbed539cc	-0.41645658
27	0x3e80d78f	0.25164458
28	0x3e89d660	0.26921368
29	0x3e587227	0.21137296
30	0x3e07a91d	0.13248105
31	0x3e01bb50	0.1266911
32	0x3e7820e5	0.24231298
33	0xbed578bf	-0.41693684
34	0xbee652d9	-0.44985083
35	0xbd9b62d4	-0.07587209
36	0x3dbec707	0.09315305
37	0xbd0213df	-0.03175723
38	0x3e9662bd	0.29372206
39	0xbdefba50	-0.11705458
40	0x3e7ae44e	0.24501154
41	0x3d988feb	0.07449325
42	0x3ce2c6d9	0.027682709
43	0x3ddccf85	0.10781769
44	0xbed94237	-0.4243333
45	0x3e936d8e	0.2879452
46	0x3e3cef27	0.18450604
47	0x3eb84023	0.35986432
48	0x3d02eb3d	0.031962622
49	0x3e3c4d04	0.18388754
50	0x3dc24da3	0.09487464
51	0xbec81748	-0.39080262
52	0xbef8e894	-0.48614943
53	0xbede1076	-0.43371934
54	0x3ddc1f79	0.107481904
55	0x3e44afac	0.19207639
56	0x3e794ca0	0.24345636
57	0x3e5f56ed	0.21810503
58	0x3e3fc340	0.18726826
59	0x3df2e042	0.1185918
60	0x3e084b74	0.13310033
61	0x3dacc4f2	0.08436002
62	0xbcedfd3d	-0.029051417
63	0xbebe9445	-0.37222496
64	0x3e002e20	0.12517595
65	0x3e8adfd8	0.27123904
66	0xbeec0064	-0.46094048
67	0x3e0f6a14	0.1400531
68	0x3ea670cb	0.3250793
69	0xbe896041	-0.26831248
70	0x3d932d4c	0.07186374
71	0x3e674c31	0.22587658
72	0xbf582a37	-0.84439415
73	0xbf24c547	-0.6436352
74	0xbec3115a	-0.38099176
75	0xbeba44d0	-0.36380625
76	0xbc810acd	-0.01575222
77	0x3e82b15a	0.25525934
78	0xbe093b15	-0.13401444
79	0x3eb340f9	0.35010508
80	0x3ec5467c	0.38530338
81	0x3e668f34	0.22515565
82	0xbe1fc613	-0.15602903
83	0xbf048b6d	-0.51775247
84	0x3eb57fbe	0.35449022
85	0xbc97135e	-0.018441852
86	0xbf04dcb0	-0.5189924
87	0x3eb11629	0.3458722
88	0xbdf43e5b	-0.11925956
89	0xbeabf285	-0.33583465
90	0xbf20679a	-0.62658083
91	0xbeaaf76f	-0.33391902
92	0x3e81406e	0.25244468
93	0xbef72b53	-0.4827524
94	0x3e0678e0	0.13132048
95	0x3e2272da	0.15864125
96	0xbeeb87ff	-0.46002194
97	0xbc55071c	-0.013002183
98	0x3e75bd89	0.23998083
99	0x3e87e1dd	0.26539508
100	0xbe4c710d	-0.19965
101	0xbe9f8d92	-0.31162697
102	0x3c0f7e80	0.008758187
103	0x3e9344b8	0.28763366
104	0xbe2cd4ab	-0.16878001
105	0xbdbb20a4	-0.09137085
106	0x3df7b2b1	0.120946296
107	0x3e8566d3	0.2605501
108	0xbf265c18	-0.64984274
109	0xbeee066b	-0.46489272
110	0x3c483b14	0.012221117
111	0xbe549ef9	-0.20763768
112	0x3e512282	0.2042332
113	0x3e80a3ec	0.25125062
114	0x3ebd0101	0.36914828
115	0x3edeb7bb	0.4349955
116	0x3eb3b004	0.35095227
117	0x3e14e6ad	0.14541121
118	0x3e0945f1	0.13405587
119	0xbec60876	-0.3867833
120	0x3e414df5	0.18877394
121	0x3e56c7fd	0.20974727
122	0xbebb45b6	-0.36576623
123	0x3e2bc12d	0.1677291
124	0x3e5205d0	0.2051003
125	0xbe955a78	-0.29170585
126	0x3c6ea2b8	0.014565162
127	0x3db5cabd	0.0887656
128	0xbec27969	-0.37983254
129	0x3db12128	0.08648902
130	0x3e42917d	0.19000812
131	0xbe7feef5	-0.24993499
132	0xbeaa5c41	-0.3327351
133	0x3e94c499	0.29056242
134	0x3e99d8cf	0.30048224
135	0xbeab4b5b	-0.3345593
136	0xbecdf30b	-0.4022449
137	0xbe76cdd5	-0.24101956
138	0xbaaee412	-0.0013343117
139	0x3d9851f2	0.07437505
140	0x3e17646a	0.14784399
141	0x3e9e24e6	0.30887526
142	0x3e815add	0.25264636
143	0x3e5d31a7	0.21600972
144	0x3ea6a91f	0.32550904
145	0x3ea22edf	0.31676385
146	0x3e889e7e	0.2668342
147	0x3e83d752	0.25750214
148	0xbddc2a52	-0.107502595
149	0x3debd49c	0.115151614
150	0x3d4a911c	0.049454793
151	0xbef3c9bd	-0.47614852
152	0xbe66d040	-0.22540379
153	0xbeef6bd9	-0.4676197
154	0xbe85a5af	-0.2610297
155	0xbe145177	-0.14484201
156	0x3d9199d9	0.07109422
157	0xbb18bfa4	-0.0023307586
158	0xbe0e20a1	-0.13879634
159	0x3eb3fc57	0.35153458
160	0x3e754eda	0.2395586
161	0x3e6bca21	0.23026325
162	0xbdecd69e	-0.115643725
163	0x3e56cf1e	0.20977446
164	0x3e82957d	0.25504676
165	0x3e0f9e45	0.14025219
166	0x3e1eed0b	0.15520112
167	0xbdbce29d	-0.092229106
168	0xbd77c977	-0.060494866
169	0xbdcfbef6	-0.10143845
170	0x3e251fd1	0.16125418
171	0x3d2367c2	0.039893873
172	0x3e2c24ad	0.16810866
173	0xbedc6c75	-0.43051496
174	0x3da1d599	0.07902069
175	0x3dbe7fe0	0.09301734
176	0xbe587a9b	-0.2114052
177	0x3de23f8f	0.11047279
178	0x3dacd0f8	0.08438295
179	0xbef94ae2	-0.48689944
180	0x3ddae3d6	0.106879875
181	0x3ea1256a	0.31473857
182	0xbe388b2d	-0.18021841
183	0x3dfd4a14	0.12367645
184	0x3e1c5523	0.15266852
185	0xbebee315	-0.37282625
186	0x3e1dfe2e	0.15428993
187	0xbdbcca4e	-0.09218274
188	0xbe089902	-0.13339618
189	0x3ed9fa29	0.4257367
190	0x3e9b550e	0.3033833
191	0x3ed028a6	0.40656012
192	0xbe4b3904	-0.19845968
193	0xbd472e7f	-0.048628327
194	0xbda6784a	-0.08128412
195	0xbec77a84	-0.3896066
196	0xbe975f87	-0.2956507
197	0xbec2ef00	-0.38072968
198	0x3dd25b81	0.10271359
199	0xbee88883	-0.4541665
200	0xbc37765f	-0.011197655
201	0x3e9e28c8	0.3089049
202	0xbda02861	-0.07820202
203	0x3b237f84	0.0024947831
204	0x3e6deea6	0.23235568
205	0x3e87806a	0.2646516
206	0xbcb6f0d1	-0.022331627
207	0x3e5ef444	0.21772867
208	0xbe36f730	-0.17867732
209	0xbe92e0dc	-0.2868718
210	0x3e58b245	0.21161754
211	0x3e9e7f9b	0.3095673
212	0x3d851439	0.06497998
213	0xbe891965	-0.26777187
214	0x3d5015a0	0.050801873
215	0x3e5ab2fe	0.21357343
216	0xbe4f1f8f	-0.20226882
217	0xbdd18d85	-0.10232071
218	0xbd38c146	-0.045106195
219	0xbba85834	-0.0051374678
220	0x3e3447e5	0.1760555
221	0x3d9302f2	0.07178296
222	0x3d19dca3	0.03756393
223	0x3e46b526	0.1940504
224	0x3e98cc22	0.2984324
225	0x3e78d056	0.24298224
226	0xbe244ea8	-0.1604563
227	0x3d5ffe23	0.054685723
228	0x3e6bcfa4	0.23028427
229	0x3e068c87	0.13139544
230	0xbe485171	-0.19562317
231	0xbe0d5381	-0.13801385
232	0x3e67acd6	0.22624525
233	0x3e94eabe	0.29085344
234	0xbe92bd78	-0.28660178
235	0x3d995d86	0.07488541
236	0x3e28d7ef	0.16488622
237	0xbe97fd5e	-0.2968549
238	0x3e823605	0.2543184
239	0x3d5911d6	0.052995525
240	0xbc720918	-0.014772676
241	0x3e8ea3ae	0.27859253
242	0x3cffa0eb	0.031204661
243	0xbe8172b5	-0.25282827
244	0xbed6f06a	-0.41980296
245	0xbec5e3b3	-0.38650283
246	0x3d97f67f	0.07420062
247	0x3dcefdb2	0.10106982
248	0xbdee52fc	-0.11636922
249	0x3e611e7d	0.21984287
250	0x3e2f1450	0.17097592
251	0x3ea63df3	0.32469139
252	0xbd1fc5a7	-0.039006855
253	0xbeb2944f	-0.34878775
254	0xbed38dc6	-0.41319102
255	0x3e3f0a6a	0.18656316

sequential_75/conv2d_526/Conv2D f4 [64, 3, 3, 32]
0	0x3dfd6dff	0.12374496
1	0xbdee8c2c	-0.116478294
2	0xbde7072d	-0.112806655
3	0xbd65f645	-0.056143064
4	0x3c960e73	0.018317437
5	0xbe15de28	-0.14635527
6	0xbd8d4b6d	-0.06899152
7	0x3e13fa96	0.1445106
8	0xbda12879	-0.07869048
9	0xbed07353	-0.40712985
10	0x3e0c11e0	0.13678694
11	0xbef09a99	-0.4699295
12	0x3dfeec33	0.12447395
13	0xbe500997	-0.20316158
14	0xbc0d6c78	-0.008631818
15	0xbe4e9ec5	-0.20177753
16	0xbde13916	-0.109972164
17	0xbea4a3b1	-0.32156137
18	0x3e17c84a	0.14822498
19	0xbb828545	-0.003983172
20	0xbd1bfc82	-0.038082607
21	0xbe312ab6	-0.17301449
22	0xbeb19a50	-0.34688044
23	0xbe8eba53	-0.2787653
24	0x3da7eeb1	0.08199824
25	0xbd6eb092	-0.05827386
26	0x3e1e38b5	0.1545132
27	0xbeab5cc4	-0.33469212
28	0xbef126ab	-0.47099814
29	0xbb7f9e43	-0.0039004243
30	0xbeabb5f7	-0.33537266
31	0xbd6072fe	-0.054797165
32	0xbc42c5aa	-0.011887947
33	0x3e283eaa	0.16430154
34	0x3d8adc89	0.06780345
35	0xbcea360b	-0.028590223
36	0xbc833ed6	-0.016021173
37	0xbc0b8091	-0.008514539
38	0x3df8d2e6	0.12149601
39	0x3ded5e74	0.11590281
40	0x3d288f39	0.041152213
41	0x3db10301	0.08643151
42	0x3d5bd083	0.05366565
43	0x3ba5802f	0.005050681
44	0xbd761401	-0.06007767
45	0x3df0cbbc	0.11757609
46	0xbd67c86c	-0.05658762
47	0xbd914199	-0.0709259
48	0x3dfd78df	0.1237657
49	0xbebbb4fe	-0.36661524
50	0x385581dc	5.09041e-05
51	0x3d9cfe1b	0.07665654
52	0x3de275ce	0.11057626
53	0x3d573e9d	0.052549947
54	0x3d7b4fbc	0.061355338
55	0xbc6e4786	-0.01454342
56	0xbd96ca6f	-0.0736283
57	0xbcc8a94a	-0.024494786
58	0xbc949796	-0.018138688
59	0xbe54eb62	-0.20792916
60	0xbd06bdc4	-0.03289582
61	0xbd222cc7	-0.039593484
62	0x3e1e9a1d	0.15488477
63	0x3dd464c6	0.103707835
64	0xbe9d27b4	-0.30694354
65	0xbe29728a	-0.165476
66	0xbd0e5288	-0.034746677
67	0xbe2bcf3e	-0.16778275
68	0xbdd4e954	-0.10396066
69	0xbe96dad0	-0.29463816
70	0xbe611c15	-0.21983369
71	0xbeafa309	-0.34304073
72	0xbd38602d	-0.045013595
73	0x3c45007e	0.012024043
74	0xbdab52b8	-0.08365387
75	0x3d86cfd2	0.06582607
76	0xbef9e451	-0.48807004
77	0xbdd1d451	-0.10245574
78	0xbcc81d06	-0.024427902
79	0xbec6055d	-0.38675967
80	0xbdf897c3	-0.12138321
81	0xbedbb246	-0.4290945
82	0xbe9fe830	-0.31231833
83	0xbce78507	-0.028261675
84	0x3c6c9876	0.014440646
85	0xbe56fd3e	-0.20995042
86	0xbd7aeb64	-0.061259642
87	0xbe1ac3da	-0.15113774
88	0xbe9ea791	-0.30987218
89	0xbdf3b61e	-0.118999705
90	0xbf1da983	-0.6158678
91	0xbeb6c999	-0.35700682
92	0xbdc68adb	-0.09694453
93	0xbe5422d7	-0.20716415
94	0xbda8a357	-0.082342796
95	0xbd97afec	-0.07406601
96	0x3e58b8db	0.21164267
97	0xbdedab82	-0.11604978
98	0xbe410a5e	-0.18851611
99	0xbc547d9b	-0.0129694
100	0xbd8825a8	-0.06647807
101	0x3dcc929c	0.09988901
102	0xbb161845	-0.002290265
103	0x3dda86ec	0.106702656
104	0xbcd68878	-0.02618812
105	0xbe84e9f2	-0.25959736
106	0x3e1bb464	0.15205532
107	0xbe90299c	-0.28156745
108	0xbdcf8daf	-0.10134446
109	0xbe3ad0cc	-0.18243712
110	0xb9284352	-0.00016046807
111	0xbe2910d4	-0.16510326
112	0xbd3d49fb	-0.04621313
113	0xbec012ed	-0.3751444
114	0x3d4d5852	0.050133057
115	0xbca812e4	-0.02051682
116	0xbdd15900	-0.102220535
117	0xbb4308ca	-0.0029759877
118	0xbed8d579	-0.42350367
119	0xbdfe8c7a	-0.124291375
120	0x3b01795d	0.0019756176
121	0xbdd96639	-0.106152005
122	0x3e137913	0.14401655
123	0xbddc384f	-0.107529275
124	0xbe9f0394	-0.31057417
125	0xbe1386df	-0.14406918
126	0xbe6a8f7b	-0.22906296
127	0x3db457ed	0.08805833
128	0xbd1fa7e5	-0.038978476
129	0x3d4cbd6b	0.04998533
130	0x3def4a9a	0.11684151
131	0xbc902038	-0.017593488
132	0x3c027494	0.007962365
133	0x3db01cff	0.085992806
134	0x3de833c0	0.113379955
135	0xbdc450f7	-0.09585755
136	0x3aafaf7e	0.0013403741
137	0x3e303893	0.17209081
138	0xbc9bf6b6	-0.01903854
139	0x3d1273d6	0.035755
140	0x3d538cf0	0.05164808
141	0x3c6d25a4	0.014474306
142	0xbd01c17b	-0.031678658
143	0x3df192f1	0.11795605
144	0xbc430a12	-0.011904256
145	0x3d8ac374	0.06775561
146	0x3cc1e7ea	0.023670156
147	0xbd4a9afb	-0.049464207
148	0x3da0e785	0.07856659
149	0xbc0bcc94	-0.008532662
150	0x3c9a9fee	0.018875089
151	0xbc9ac686	-0.018893491
152	0x3cc45355	0.023965517
153	0xbd044539	-0.03229258
154	0x3cc5d654	0.024150051
155	0x3e1e16ef	0.15438436
156	0x3d7d2b47	0.06180885
157	0x3b079263	0.0020686619
158	0x3db0683b	0.086136304
159	0x3d8169f5	0.06319038
160	0xbee3ab0e	-0.44466442
161	0xbe4b4103	-0.19849019
162	0xbe4f5058	-0.20245492
163	0xbe66e32f	-0.22547601
164	0xbe453962	-0.19260171
165	0xbe80c230	-0.25148153
166	0xbe7f2d34	-0.24919587
167	0xbed8489d	-0.422429
168	0xbde0c181	-0.10974408
169	0xbd968610	-0.07349789
170	0xbc9be9a2	-0.019032303
171	0xbd99a898	-0.0750286
172	0xbe9dbada	-0.3080662
173	0xbdce0143	-0.100588344
174	0xbe7d24d0	-0.24721074
175	0xbe076c1f	-0.13224839
176	0xbe217c82	-0.15770152
177	0xbe680cae	-0.22661087
178	0xbf037c20	-0.51361275
179	0xbdcebb83	-0.10094359
180	0xbe2ea807	-0.17056285
181	0xbea472ee	-0.32118934
182	0xbe2eb356	-0.17060599
183	0xbe34f016	-0.1766971
184	0xbebb428b	-0.36574206
185	0xbe0f36ad	-0.13985701
186	0xbef6c4dc	-0.48197067
187	0xbe722f29	-0.23650803
188	0xbde10de7	-0.1098898
189	0xbcf1fc43	-0.029539233
190	0xbdc9110e	-0.09817706
191	0x3cf6d843	0.030132418
192	0x3e88f80e	0.2675175
193	0xbda00acc	-0.07814559
194	0xbdcb0d3d	-0.099146344
195	0xbdf852f9	-0.12125201
196	0xbdd6a552	-0.10480751
197	0x3d8d09bd	0.06886623
198	0xbda9aa0e	-0.082843885
199	0x3e8baf35	0.2728211
200	0x3d7b6501	0.06137562
201	0xbe9b91a4	-0.30384552
202	0x3e7de061	0.24792625
203	0xbe4a152a	-0.19734636
204	0x3c9d438b	0.019197246
205	0xbd4dd9e8	-0.05025664
206	0x3dba57ce	0.09098779
207	0xbe26bd58	-0.16283166
208	0xbe4951d9	-0.19660129
209	0xbe6c46fa	-0.2307395
210	0x3cc2d020	0.023780882
211	0xbc4ff3e7	-0.012692428
212	0xbe5e4974	-0.21707708
213	0xbc9fc647	-0.019503726
214	0xbeb366c7	-0.3503935
215	0xbe5674a8	-0.20942938
216	0x3daf1c60	0.08550334
217	0xbc9a5e30	-0.01884374
218	0x3de62a20	0.112385035
219	0xbcb062e6	-0.021531533
220	0xbe651569	-0.22371449
221	0xbe1c54ae	-0.15266678
222	0xbe7cd94e	-0.2469227
223	0x3e363f67	0.17797624
224	0x3e059ff1	0.13049294
225	0x3d91295b	0.07087966
226	0x3e21c2a3	0.15796904
227	0x3ce80d03	0.028326517
228	0x3c95ff0f	0.018310098
229	0x3d9b78fb	0.075914346
230	0x3d981719	0.074262805
231	0x3e51e2a0	0.20496607
232	0x3e5a96d2	0.21346596
233	0x3e071356	0.1319097
234	0x3e374ba1	0.17899944
235	0x3e2c6287	0.1683446
236	0x3dd5fec2	0.10448982
237	0x3e42a2ae	0.1900737
238	0x3de4e24f	0.111759774
239	0x3e604bdc	0.21903938
240	0x3d0f95d7	0.035055008
241	0x3d793ef8	0.060851067
242	0xbb41bc03	-0.0029561527
243	0x3b858da6	0.0040757237
244	0x3df85bb9	0.1212687
245	0x3d1af7fc	0.037834153
246	0x3da3d800	0.08000183
247	0x3dd27a71	0.1027726
248	0x3cc89da4	0.024489231
249	0x3dfb8db7	0.12282889
250	0x3dd6b112	0.10482992
251	0x3e0fc56f	0.14040159
252	0x3e0ed294	0.13947517
253	0x3d429f55	0.047515232
254	0x3dc439e1	0.09581352
255	0x3dcad627	0.099041276

sequential_75/dense_76/BiasAdd/ReadVariableOp f4 [13]
0	0x3aa549e3	0.0012610521
1	0xbe6600ef	-0.22461294
2	0xbc8baa6a	-0.017049033
3	0x3dcb31f6	0.09921639
4	0xbc4383e4	-0.011933301
5	0x3c46bb45	0.0121296095
6	0x3d86d67f	0.06583881
7	0xbd5bcf82	-0.05366469
8	0x3e274efb	0.16338722
9	0x3df64a34	0.12025872
10	0xbdcc9c8e	-0.09990798
11	0xbf189c91	-0.596139
12	0x3e2ce0a4	0.16882569

sequential_75/dense_75/BiasAdd/ReadVariableOp f4 [128]
0	0x3ce5f306	0.028069984
1	0xbcfb8f90	-0.030708104
2	0xbdf0ddc5	-0.11761049
3	0x3c7fc4c0	0.015610874
4	0xbe1c75bb	-0.15279286
5	0x3d1432c2	0.03618122
6	0xbc38972d	-0.011266512
7	0xbd343787	-0.043998268
8	0xbd19c403	-0.037540447
9	0x3d0beadb	0.034159523
10	0xbd833244	-0.06406072
11	0xbd90f59d	-0.07078097
12	0xbe0306cc	-0.12795562
13	0xbcf4cd08	-0.029882923
14	0xbc1ca33e	-0.009560404
15	0xbcf6e322	-0.030137602
16	0xbd4295dd	-0.047506202
17	0xbdaee431	-0.08539618
18	0x3d3346cd	0.043768693
19	0xbdaf14db	-0.085489
20	0xbdad74eb	-0.08469566
21	0x3db9d167	0.090731435
22	0xbc73a052	-0.014869766
23	0xbdb7cac8	-0.08974224
24	0xbdd0f194	-0.10202327
25	0xbd3c4126	-0.045960568
26	0xbcee45d1	-0.029086025
27	0x3c8737f4	0.016506173
28	0x3ceab838	0.028652295
29	0xbd5fae45	-0.054609556
30	0xbd8d194c	-0.068895906
31	0xbc530e37	-0.012881807
32	0xbda4b03c	-0.080414265
33	0x3d102f95	0.035201628
34	0xbdbb6ccf	-0.09151613
35	0xbd8d855f	-0.06910204
36	0xbd87af27	-0.066252045
37	0xbda91213	-0.082554005
38	0x3c0d8668	0.008638002
39	0x3c7e2c2e	0.015513463
40	0x3dacee1d	0.08443854
41	0xbbd0430a	-0.006355648
42	0x3be0b03a	0.0068569453
43	0xbc30c164	-0.010788295
44	0x3c420c29	0.0118437195
45	0xbdc8b27f	-0.097996704
46	0xbdbf19ff	-0.0933113
47	0xbda48f87	-0.08035188
48	0xbdb549c2	-0.08851959
49	0xbc006698	-0.00783696
50	0xbd8c796b	-0.06859096
51	0xbda97647	-0.08274513
52	0xbd09b142	-0.03361631
53	0xbd49e43f	-0.049289938
54	0xbe029cdb	-0.12755148
55	0xbda56da4	-0.08077553
56	0xbcfb1c1a	-0.030653048
57	0x3b6784a6	0.0035326867
58	0xbd0aae2e	-0.033857517
59	0x3d01b742	0.03166891
60	0xbdf3ac6c	-0.11898121
61	0xbd297492	-0.041370936
62	0xbda2e83d	-0.07954452
63	0xbc55827b	-0.013031597
64	0xbdb53401	-0.088478096
65	0x3d7a4af1	0.061106626
66	0xbc0e07b4	-0.008668829
67	0x3c897205	0.016778002
68	0xbdb05768	-0.086104214
69	0xbdadf30b	-0.084936224
70	0xbd9bf525	-0.07615117
71	0x3c154223	0.0091100065
72	0xbd6dbebb	-0.058043223
73	0xbe233025	-0.15936334
74	0x3dce0be1	0.100608595
75	0xbd2bc463	-0.041935336
76	0xbc868d29	-0.016424732
77	0xbdf9dbb1	-0.12200106
78	0xbe04b9b7	-0.1296147
79	0xbaf7ea84	-0.0018914496
80	0x3da88523	0.08228519
81	0xbdfa7f20	-0.122312784
82	0xbe049447	-0.12947188
83	0xbdd84282	-0.1055956
84	0x3b9d96dc	0.0048092436
85	0xbdb5107e	-0.08841036
86	0xbca94e0c	-0.020667098
87	0xbcd1f3b4	-0.025628902
88	0x3cd2fc56	0.025755089
89	0x3d7d6093	0.06185968
90	0x3c1ee01d	0.009696987
91	0xbd1f0c14	-0.038829878
92	0xbd1fa777	-0.038978066
93	0xbde9fdd6	-0.114253685
94	0x3c5a7d23	0.013335499
95	0xba30a52e	-0.0006738481
96	0x3d4ef815	0.05052956
97	0xbdd02174	-0.10162631
98	0x3d28f537	0.04124948
99	0xbd5db3d6	-0.054126583
100	0x3cc513a8	0.024057224
101	0xbd72200a	-0.059112586
102	0xbddc2029	-0.107483216
103	0xbd54b84b	-0.051933568
104	0xbc928ae5	-0.017888496
105	0xbdde64a8	-0.108590424
106	0xbdf5cea6	-0.12002306
107	0xbda9ebfb	-0.08296963
108	0xbd819b08	-0.06328398
109	0xbcafcb2a	-0.02145918
110	0xbdc0730a	-0.09396942
111	0xbdb785a1	-0.089610346
112	0x3d881700	0.06645012
113	0x3d6330f3	0.055466603
114	0xbd3ef337	-0.046618666
115	0xbca869f2	-0.020558331
116	0xbcb35e60	-0.021895587
117	0x3c694b55	0.014239152
118	0xbda0ca20	-0.07851052
119	0x3d27e42a	0.04098908
120	0xbe0c8bd1	-0.1372521
121	0xbd5ce098	-0.053925127
122	0xbc6671d5	-0.014065226
123	0x3da7c08e	0.08191024
124	0x3dacf2f7	0.08444779
125	0xbd436eb2	-0.04771299
126	0xbde46792	-0.11152567
127	0x3d1ab962	0.03777445

sequential_75/dense_75/MatMul f4 [128, 1600]
0	0x3d5b2140	0.053498507
1	0xbdba1cb5	-0.09087507
2	0x3d826c74	0.06368342
3	0x3d661fe7	0.05618277
4	0x3dbf5ade	0.093435034
5	0xbcdca97d	-0.026936287
6	0x3d088bd5	0.03333648
7	0x3dbd3f08	0.09240538
8	0x3c72befa	0.01481604
9	0x3e17ec34	0.14836198
10	0xbe4c421b	-0.19947092
11	0x3dee780d	0.116439916
12	0xbd5bfffa	-0.053710915
13	0x3dfbf5b9	0.12302727
14	0x3e32b2dd	0.17451043
15	0xbdde386a	-0.10850604
16	0x3e53350d	0.20625706
17	0xbde2fdef	-0.1108359
18	0x3e0524c4	0.13002306
19	0x3de22ecf	0.11044084
20	0xbca80b36	-0.020513158
21	0x3de0118b	0.10940846
22	0xbc350171	-0.011047707
23	0x3dc48938	0.09596485
24	0xbd285216	-0.04109391
25	0xbd61fe74	-0.055174306
26	0xbdaa5065	-0.08316115
27	0x3e536fa7	0.2064806
28	0xbc81cc57	-0.015844507
29	0x3d5b1551	0.053487126
30	0x3d87ce79	0.066311784
31	0x3caf14e5	0.021372268
32	0xbcbd88e3	-0.023136562
33	0xbe13eaf7	-0.144451
34	0xbd09c49d	-0.03363477
35	0x3dec940d	0.11551676
36	0x3da7634f	0.081732385
37	0x3db68755	0.08912531
38	0xbde750d4	-0.112947136
39	0x3e1eddc6	0.15514287
40	0x3e23c206	0.15991983
41	0xbd2b04b8	-0.041752547
42	0xbdb566d5	-0.08857504
43	0x3d89a730	0.067213416
44	0x3cf48321	0.029847683
45	0xbc3c66ad	-0.011499089
46	0x3db5e318	0.08881205
47	0xba800182	-0.0009766074
48	0xbc9e8de8	-0.019354776
49	0x3db753df	0.08951544
50	0xbb9753fa	-0.004618165
51	0xbd821543	-0.063517116
52	0xbc11af0f	-0.008891835
53	0x3c89b124	0.0168081
54	0xbde39926	-0.11113195
55	0x3e48c9b2	0.1960819
56	0xbdee6929	-0.116411515
57	0x3e1691f8	0.1470412
58	0x3b97f8bb	0.0046378053
59	0x3e244c27	0.16044675
60	0xbdb02bf5	-0.08602134
61	0x3d13d07e	0.036087506
62	0x3dd56eef	0.104215495
63	0x3df1a6aa	0.11799367
64	0xbd4dba56	-0.050226532
65	0xbe4230db	-0.1896395
66	0xbcaf222a	-0.021378595
67	0xbd5adef9	-0.0534353
68	0xbd06b941	-0.032891516
69	0xbd82a6e2	-0.063794866
70	0x3d429cd6	0.04751285
71	0xbd90e9e1	-0.07075859
72	0x3cba6fdf	0.022758422
73	0xbda837d1	-0.08213771
74	0xbdef2b62	-0.116781965
75	0xbdb0a771	-0.08625687
76	0x3d5aa349	0.053378377
77	0x3e1bef9e	0.15228125
78	0x3da87201	0.082248695
79	0x3d37adbd	0.044843424
80	0xbc04a1c0	-0.008095205
81	0xbde09f14	-0.10967842
82	0x3dc278a5	0.09495667
83	0x3d075da1	0.033048276
84	0x3d30d652	0.04317314
85	0x3e0e49aa	0.13895288
86	0xbbc5197e	-0.006015002
87	0xbd5e439b	-0.054263692
88	0xbda5dd30	-0.08098829
89	0xbe47cc3a	-0.195115
90	0xbd96d173	-0.07364168
91	0x3dfbbd81	0.122920044
92	0xbd3cb3d7	-0.046069946
93	0x3c2f8c2e	0.010714574
94	0x3dd28291	0.1027881
95	0xbd80562c	-0.06266436
96	0xbd38d6eb	-0.045126837
97	0xbe1636aa	-0.1466929
98	0x3dbdec7f	0.09273624
99	0x3ce69a83	0.028149849
100	0x3de9da81	0.114186294
101	0x3c85f2e5	0.016351173
102	0x3d1540a6	0.036438607
103	0x3d503fa2	0.050841935
104	0x3dce12cc	0.10062179
105	0x3d04c88d	0.032417823
106	0x3c6752a0	0.01411882
107	0xbd1a13a5	-0.03761639
108	0xbd36f641	-0.04466844
109	0x3d3c4d80	0.045972347
110	0x3df0abcc	0.11751518
111	0x3db48763	0.088148855
112	0x3c9c9809	0.019115465
113	0x3c631f58	0.013862453
114	0xbe22f022	-0.15911916
115	0xbdf3542b	-0.11881288
116	0xbda15ddc	-0.078792304
117	0xbd615d0a	-0.05502037
118	0x3bd2c4b3	0.00643214
119	0x3dfef4d5	0.12449042
120	0xbe38dac0	-0.18052197
121	0x3d2816b3	0.041037273
122	0xbcadee29	-0.021231728
123	0x3d67a032	0.05654926
124	0xbe11a4f3	-0.1422308
125	0xbc8777b4	-0.016536571
126	0x3df60c88	0.12014109
127	0xbdd68719	-0.104749866
128	0xbd850d8f	-0.06496727
129	0xbe48cddb	-0.19609778
130	0x3d305005	0.043045063
131	0x3dcca878	0.0999307
132	0xbc86b008	-0.01644136
133	0xbe087eab	-0.1332957
134	0xbda88095	-0.0822765
135	0xbdb9c7d7	-0.090713196
136	0xbd9b2ee3	-0.07577302
137	0xbe221dd8	-0.15831697
138	0xbe19ab2f	-0.15006708
139	0xbd5467d1	-0.05185682
140	0x3d5c53ca	0.053790845
141	0xbd50fbf4	-0.05102153
142	0x3d9cfc89	0.07665355
143	0xbd4d5ef2	-0.050139375
144	0xbd27608f	-0.04086357
145	0xbcab5f71	-0.020919533
146	0xbd07453b	-0.033025008
147	0xbd8ca816	-0.06867997
148	0xbd4bcecf	-0.049757775
149	0x3c1ebdd8	0.009688817
150	0x3d8c7a4a	0.06859262
151	0xbc9d4644	-0.019198544
152	0xbdf3af64	-0.118986875
153	0xbd5c3998	-0.053765863
154	0xbdc07856	-0.09397952
155	0x3d7c5847	0.061607625
156	0x3d5ac692	0.053412028
157	0x3c990e21	0.018683495
158	0xbd75fb46	-0.060054086
159	0xbd9e9acc	-0.07744369
160	0xbd95a9ae	-0.073077545
161	0xbdba3a8c	-0.09093198
162	0x3cd8e1d4	0.02647487
163	0x3daadbb4	0.08342686
164	0xbd8030fb	-0.06259342
165	0x3be1efab	0.0068950257
166	0xbbfba53f	-0.007679611
167	0x3d974790	0.07386696
168	0xbd364d34	-0.04450722
169	0x3dd4d9b1	0.10393084
170	0xbce473d2	-0.027887259
171	0xbd4b66c3	-0.049658548
172	0xbe305e6d	-0.1722352
173	0xbd0a6514	-0.0337878
174	0xba6ff56d	-0.0009153698
175	0x3ce4e561	0.027941408
176	0x3d219f3d	0.039458502
177	0xbdd5b3c2	-0.10434677
178	0xbe17c54c	-0.14821357
179	0xbc887d69	-0.016661363
180	0x3ca1cce7	0.019751025
181	0x3d4a0a22	0.04932607
182	0xbddbbc63	-0.10729291
183	0x3cf49fd2	0.029861365
184	0xbe01064a	-0.12600055
185	0xbd034d95	-0.03205641
186	0xbe100e1c	-0.14067882
187	0xbcb1b803	-0.021694189
188	0xbde51897	-0.11186331
189	0x3d877075	0.06613246
190	0xbd605b97	-0.054774847
191	0xbd4ce128	-0.050019413
192	0xbafe498a	-0.0019400578
193	0xbdab45a4	-0.08362892
194	0x3cffb25d	0.03121298
195	0xbd0a4706	-0.03375914
196	0xbd5a3c08	-0.053279907
197	0xbd4e6e37	-0.050398078
198	0x3d15ded0	0.036589444
199	0xbc4de904	-0.012567762
200	0x3b84c4fe	0.0040518036
201	0x3d45bde8	0.04827681
202	0xbd1377b3	-0.036002826
203	0xbdaadcf1	-0.083429225
204	0x3d9f1804	0.077682525
205	0xbbfd73da	-0.007734758
206	0x3d4326fe	0.047644608
207	0xbd5332b3	-0.051562022
208	0xbdc9ee27	-0.09859877
209	0x3b71e0f9	0.0036907776
210	0xbcde1129	-0.027107792
211	0x3d28bb19	0.041194055
212	0xbda06bf9	-0.07833094
213	0x3d37b942	0.04485441
214	0xba8856a2	-0.0010401795
215	0xbd28b3ef	-0.041187223
216	0xbd2f70d9	-0.04283223
217	0xbdb79405	-0.08963779
218	0xbe222f73	-0.15838413
219	0xbb14e7e3	-0.0022721223
220	0x3d083974	0.033257917
221	0x3d7449fb	0.059640866
222	0x3b578083	0.0032882995
223	0xbdae5ef5	-0.08514205
224	0xbdab937f	-0.08377742
225	0x3cbfecb4	0.023428299
226	0x3a08871d	0.0005208122
227	0x3d399f17	0.045317736
228	0xbd96da9b	-0.073659144
229	0xbc857e3b	-0.016295543
230	0xbdad7141	-0.08468867
231	0x3d1956c4	0.03743626
232	0xbe071ec7	-0.13195334
233	0x3d337a4b	0.0438178
234	0xbcfd3ae1	-0.030911865
235	0xbdf8bd63	-0.12145498
236	0xbb573604	-0.0032838592
237	0xbb619ad0	-0.003442455
238	0x3c637816	0.013883611
239	0xbd56373a	-0.052298762
240	0xbd7a51b6	-0.061113082
241	0xbdbff63e	-0.09373139
242	0xbe578ebf	-0.21050547
243	0xbd621448	-0.055195123
244	0xbd86051f	-0.065439455
245	0xbc9f69d9	-0.019459652
246	0x3d109bd4	0.03530486
247	0x3c5a31b7	0.013317517
248	0xbda89710	-0.08231938
249	0xbd7f0a90	-0.062265933
250	0xbd92fc4e	-0.071770296
251	0xbd192ba2	-0.037395127
252	0x3ce95f94	0.028487958
253	0xbcb843bf	-0.022493241
254	0xbdafb7d9	-0.08579988
255	0x3d1744c0	0.0369308

sequential_75/dense_76/MatMul f4 [13, 128]
0	0xbd9e43ef	-0.07727801
1	0x3d30ea6c	0.043192312
2	0xbeb02d69	-0.34409645
3	0x3cff8d92	0.031195436
4	0xbe02d81e	-0.12777755
5	0x3df9f489	0.122048445
6	0xbdd27624	-0.1027644
7	0x3d5e9420	0.05434048
8	0x3e2eca11	0.1706927
9	0xbd60c809	-0.05487827
10	0xbe79e013	-0.24401884
11	0xbe268fa0	-0.16265726
12	0x3e16aad8	0.14713609
13	0xbe917238	-0.28407454
14	0x3dabf962	0.08397175
15	0xbc94d985	-0.018170128
16	0x3e264667	0.16237794
17	0xbd375b0f	-0.044764575
18	0x3e485c80	0.19566536
19	0x3c8bf251	0.017083319
20	0xbde8e2ee	-0.113714084
21	0xbe14c8e3	-0.14529757
22	0x3db594d3	0.088662766
23	0xbe3a9919	-0.18222465
24	0x3e503f8e	0.20336744
25	0xbcf0f196	-0.029412072
26	0x3d3f44bc	0.04669641
27	0x3e45f382	0.19331172
28	0x3d9ce637	0.076610975
29	0xbe8754b0	-0.264318
30	0x3e6adf53	0.22936754
31	0x3c67dc85	0.014151697
32	0x3d24fef9	0.040282223
33	0xbd11d061	-0.035599116
34	0x3e1f5f76	0.15563759
35	0xbe9bec1b	-0.30453572
36	0xbdc11bab	-0.09429105
37	0x3e5c3557	0.21504723
38	0x3d6a5ff5	0.057220418
39	0x3d16f65b	0.036856037
40	0xbe619f93	-0.22033529
41	0x3e03d706	0.12874994
42	0x3cae039c	0.021241955
43	0xbde430ae	-0.111420974
44	0x3e1acf60	0.1511817
45	0xbe863f20	-0.26220036
46	0x3d874f42	0.06606914
47	0xbe67983a	-0.22616664
48	0x3d9433f8	0.07236475
49	0xbd2e74b5	-0.04259177
50	0xbd91e88e	-0.071244344
51	0x3cd30d84	0.02576328
52	0xbd186a02	-0.037210472
53	0xbc91461d	-0.017733628
54	0x3e08402b	0.13305728
55	0xbdfe567c	-0.12418839
56	0xbd7b757e	-0.061391346
57	0x3df56feb	0.11984237
58	0xbd91f5b1	-0.0712694
59	0xbe8fff01	-0.2812424
60	0xbe74d63c	-0.23909849
61	0xbd9b1161	-0.07571674
62	0x3d956ae7	0.07295781
63	0xbd9b3da2	-0.07580115
64	0xbd924680	-0.07142353
65	0x3dd33e65	0.10314635
66	0xbdd3a2f5	-0.10333816
67	0xbe3e35f9	-0.18575276
68	0x3dd0feee	0.10204874
69	0xbd7dcb07	-0.0619612
70	0x3d4510a7	0.048111584
71	0x3e83ab1f	0.25716493
72	0x3e33f799	0.1757492
73	0xbe220240	-0.15821171
74	0xbe8c5e97	-0.27415916
75	0x3e2dce0f	0.16973136
76	0x3c0bc63e	0.008531151
77	0x3da63efa	0.081174806
78	0x3e14f7d9	0.14547671
79	0xbe37cca0	-0.17949152
80	0xbee4bea9	-0.44676712
81	0xbc9eb134	-0.019371606
82	0xbe31d767	-0.17367326
83	0x3e111f65	0.14172132
84	0xbe7aaf63	-0.24480967
85	0xbcacc50b	-0.021090051
86	0x3e145f32	0.14489439
87	0x3e3c6e01	0.18401338
88	0x3db38c86	0.08767037
89	0x3e5a7ddd	0.21337076
90	0xbdd47ea7	-0.103757195
91	0xbcfe78f7	-0.03106354
92	0x3e0788a9	0.13235725
93	0xbcb9792e	-0.02264079
94	0x3de76844	0.11299184
95	0xbd8fce67	-0.0702179
96	0xbe86ee0b	-0.26353487
97	0x3de2021d	0.11035559
98	0xbeab33f0	-0.33438063
99	0xbe120e21	-0.14263202
100	0x3d810803	0.06300356
101	0x3d93723f	0.07199525
102	0xbed13741	-0.40862468
103	0xbe53332a	-0.20624986
104	0xbe4bedaa	-0.1991488
105	0x3de1966c	0.11015019
106	0x3e1fd5d8	0.15608919
107	0x3e40ff3c	0.18847364
108	0x3bbf0df8	0.0058305226
109	0x3ce2f05e	0.027702507
110	0xbe06353e	-0.13106248
111	0xbe45326d	-0.19257517
112	0xbe636e58	-0.22210062
113	0x3e0bc7de	0.13650462
114	0xbe24c4dd	-0.16090722
115	0x3daf6439	0.08564038
116	0x3e82d6d6	0.25554532
117	0x3b3531cc	0.002764809
118	0x3e58a5c1	0.2115698
119	0x3d33d7fb	0.043907147
120	0xbe892cde	-0.26792043
121	0x3d720069	0.059082422
122	0x3b61d8a3	0.00344614
123	0xbdebdbf7	-0.11516564
124	0x3db73c4f	0.0894705
125	0x3de4285a	0.11140509
126	0xbe0810ec	-0.13287705
127	0x3e06de58	0.13170755
128	0xbe7c892b	-0.246617
129	0x3cb91189	0.02259137
130	0x3e1fde60	0.15612173
131	0xbea2636a	-0.31716472
132	0x3e4faea7	0.20281468
133	0x3d4c6cc1	0.049908403
134	0xbe481570	-0.19539428
135	0xbe8620de	-0.2619695
136	0x3e8cfde7	0.27537462
137	0x3c240df8	0.010013096
138	0xbe9f82d6	-0.31154507
139	0xbd3aceb8	-0.0456073
140	0x3b26f8b4	0.0025477828
141	0x3c03aef0	0.008037314
142	0x3c5a3ddc	0.0133204125
143	0xbe6544f4	-0.22389585
144	0x3e441755	0.19149525
145	0xbd817886	-0.06321816
146	0xbdf6b43c	-0.12046096
147	0xbe7b7174	-0.24554998
148	0xbe294cce	-0.16533205
149	0xbe6732b9	-0.22577943
150	0xbe8211cb	-0.254042
151	0x3d3e0473	0.04639096
152	0x3dc5eea3	0.09664657
153	0xbe0c2f5d	-0.13689943
154	0xbdbd9437	-0.09256785
155	0x3cd29687	0.025706543
156	0x3e050dc1	0.12993528
157	0x3e2f2d50	0.17107129
158	0x3e0bfd21	0.1367078
159	0xbe51f93c	-0.20505232
160	0x3d0022be	0.031283133
161	0x3e884389	0.26614025
162	0x3de53ac5	0.1119285
163	0x3e10357c	0.14082903
164	0xbe921dca	-0.28538352
165	0xbe65d2ab	-0.22443645
166	0xbdb82107	-0.089906745
167	0x3d0f6ee7	0.035017874
168	0xbee79c9f	-0.4523668
169	0x3dba3506	0.09092145
170	0xbdd284ab	-0.10279211
171	0x3db36602	0.08759691
172	0x3e1a1aeb	0.15049331
173	0x3e5c849b	0.2153496
174	0xbd122ed7	-0.0356892
175	0xbe8314f1	-0.25601915
176	0xbd726a2b	-0.05918328
177	0x3da53017	0.08065813
178	0x3da5956c	0.080851406
179	0xbdc1c834	-0.09462014
180	0x3e43a9a4	0.19107682
181	0xbe690dfa	-0.22759238
182	0x3e713dc0	0.23558712
183	0xbd00acf2	-0.031414934
184	0xbea1efcd	-0.31628266
185	0x3ddfe81b	0.109329425
186	0xbe143341	-0.14472677
187	0xbef1457f	-0.47123334
188	0x3df309f6	0.11867134
189	0xbedc27e6	-0.4299919
190	0x3da9f684	0.08298972
191	0xbdf0eab4	-0.11763516
192	0xbe49005c	-0.19629043
193	0xbe4961eb	-0.19666259
194	0x3dc984d7	0.0983979
195	0x3e834101	0.25635532
196	0xbcc10249	-0.02356066
197	0xbe7a3d98	-0.24437559
198	0x3e94001e	0.2890634
199	0x3e421034	0.18951494
200	0x3d0ef983	0.03490592
201	0x3e522d8e	0.2052519
202	0xbe87a7a4	-0.26495087
203	0xbd57eb65	-0.052714724
204	0xbe5aa430	-0.21351695
205	0xbd44913d	-0.047990073
206	0x3e3612f9	0.17780675
207	0x3e9469ed	0.28987065
208	0xbd9494dd	-0.07254956
209	0xbd51f7f2	-0.05126185
210	0x3d8b22d6	0.06793754
211	0x3e4924ef	0.19642995
212	0x3e622f53	0.22088365
213	0xbe1872bd	-0.14887519
214	0x3e2126b3	0.15737419
215	0x3e1aa528	0.15102065
216	0x3cc0e09f	0.023544608
217	0xbebc9e19	-0.3683937
218	0x3e542115	0.20715745
219	0xbec33ace	-0.38130802
220	0xbdc108c4	-0.094255
221	0xbdd6c170	-0.10486114
222	0xbe8296ab	-0.25505576
223	0xbe435a87	-0.19077502
224	0x3bbe96fc	0.0058163386
225	0xbcfd47cc	-0.030918024
226	0x3d9715c2	0.07377197
227	0x3dddbd2a	0.10827096
228	0xbdbada87	-0.09123712
229	0xbe09f9e9	-0.1347424
230	0xbe5a5c8e	-0.2132437
231	0xbce23de5	-0.027617404
232	0xbe7549cb	-0.23953931
233	0xbe61d072	-0.22052172
234	0x3e0cd5df	0.1375346
235	0xbdcf8c38	-0.101341665
236	0x3e5e8db3	0.21733741
237	0xbebac326	-0.3647701
238	0xbe13f4aa	-0.144488
239	0xbdad838c	-0.08472356
240	0xbec6fe41	-0.38865855
241	0xbdce70ce	-0.100801095
242	0xbeb74867	-0.35797426
243	0xbe17e93d	-0.14835067
244	0xbbdb3438	-0.0066895746
245	0xbea5bd32	-0.32370907
246	0xbc8eb859	-0.017421888
247	0xbe7e7ea2	-0.24852994
248	0x3e585a64	0.21128231
249	0xbe258fcc	-0.16168135
250	0xbecd07ca	-0.40045005
251	0x3e65e207	0.22449504
252	0x3cb650fe	0.022255417
253	0xbd4e0076	-0.05029341
254	0xbeaf3944	-0.34223378
255	0xbe43d08e	-0.19122526
