app/src/main/assets/mnist.tflite (tflite, 978368 bytes, 10 tensors)

layer_1_conv/Conv2D_bias f4 [6]
00000000: 0948 7f3b dcbb 0b3d d070 663d c155 593d
00000010: 61be a23d 024b f23a
0.0038952848 0.034114704 0.05625993 0.053060297 0.07946468 0.0018485489

layer_1_conv/weight f4 [1, 6, 6, 6]
00000000: d59f 243d d669 29be 7166 c53c 395a 763d
00000010: a47a 6d3d 5dfa 643c 78d4 943d c348 323e
00000020: cbd8 4b3e 9ac1 05be b6e0 a1bd f795 383e
00000030: c9ba 7cbd b2bb 603e a577 793e e0f0 933c
00000040: 1492 a0bd 8117 f0bd 65c4 933e 517d 973d
00000050: 78e4 783e ba5d 063e a880 73bd 199a 813d
00000060: 4edf 673e bcbc b4bd 1491 bcbd 9ddd ed3d
00000070: 2fa3 29be 613e 633d 155c 653e 4188 13bd
00000080: 3340 833d b54f 803c 2adc 413d 66c7 04be
00000090: d33f 52be 19f5 a63b 2969 103e b444 cebc
000000a0: 3ffc 1bbd 2a62 ac3c 4e5b 5b3d 9d2e bb3d
000000b0: 5448 743e a1c7 3abe 8d0f 053e 5586 b3bd
000000c0: 38a1 10bc 81db 3e3e 7eb2 953c c0cb 67be
000000d0: a531 673e 3c6f 303e c74d ab3e d7f5 2cbe
000000e0: f1bf 483d 051e 1a3e 9887 df3c 7703 1c3e
000000f0: 7d4e a53e 6dde 60be 7761 41be 11a2 e53d
00000100: cad1 493e 1ffb d43c 189a edbb 60c1 e3bd
00000110: fa4d 8fbe 70d0 61bc 0b71 3d3d cd6a bbbd
00000120: f747 4ebc 66a2 00be 5f6f 953b e3a4 d0bd
00000130: 534b 643e 59c2 293e f038 57be 2dc6 483e
00000140: 9d29 0f3e 455c bcbd e1a4 933e 5b8c 913e
00000150: cdbf c43d 3fd7 0cbe 6229 c83d 27da 22bc
00000160: 6a42 e83d 7ccc 8e3d 41c0 81bd c99d c4be
00000170: 5fb9 c23d 3d67 4b3d 000f db3d ced6 2e3e
00000180: aa16 aa3d 1907 19be c30f 10be f9e8 053e
00000190: 8772 413e 58bd da3d 5bf2 52bd b114 0f3e
000001a0: e4eb 62be d3ec 24bd 3131 e13d 41a9 8abd
000001b0: 6422 22be 9483 e43d 20d4 88bd 54dc e2bd
000001c0: 9374 c83d 9754 603e 968e c4be ad89 253e
000001d0: d1d3 6c3e 4fd4 18be b0b6 213e 56cb fc3d
000001e0: 121e d5be 9f63 0bbe e0ad 493d 7249 5ebc
000001f0: 599d 833e 6e41 953e 4cb9 9abc c43a 043e
00000200: ba25 1dbe a099 733d d3aa 883d de21 823e
00000210: a8da 52bc c345 373e 431d 68be 5c86 94bd
00000220: a7a6 023d 2aa2 12be 3b44 9abb 35d6 543e
00000230: e06e 6ebe 8570 16be bb71 4f3e 06f5 333e
00000240: 4877 7abe 74b3 52bd 20d8 3e3d b58a 8f3e
00000250: edea 76bd 3831 f33d f2e9 0fbe 3db9 78bd
00000260: b349 1e3e 610d 9fbd 53bc 60be 5693 c3bd
00000270: b233 01be 10c8 ea3c 4fec 16be e922 283e
00000280: 0539 f9bd 9a0e 24bd 6a9e 07be 9ed9 fb3d
00000290: 3d7a 0cbe e29f fa3d 12e7 c4bd 28bc 2fbd
000002a0: 15ea 8d3c e4ab 1c3e 57e8 dfbd 506e 9dbc
000002b0: 3c2c 24bd e4b8 48bd c4a2 ccbc 8343 1c3e
000002c0: 07ec 65be 72d4 1ebe 39ac 343e ec72 19be
000002d0: 6a87 503c 7bf9 9cbd 4e6f ecbc 58be f53d
000002e0: 5d5a 4fbe 581e 4bbe 0882 96bd f719 debc
000002f0: 4f32 b5bd 6dd4 9f3e f260 c8be 124d ecbd
00000300: 4fe9 b23d 86ee 28be b4b8 a73c 5d54 603e
00000310: d289 9fbe 392b 0a3d e77c 033e 8ee1 753d
00000320: f68b 27bd e910 763d 58bd abbe 18fc 9d3d
00000330: 4862 7c3d 9d4f acbd e3f9 15be a848 16bd
00000340: a032 123d dac4 e9bd 6ecf 663e d4cf 0d3e
00000350: f7db a7bd 8634 193d b884 883e 2c4f da3d
0.04019149 -0.1654428 0.0240967 0.060144637 0.057978287 0.013975707 0.07267088 0.17410569
0.19906919 -0.13062134 -0.07904188 0.18025957 -0.06170157 0.219466 0.24362047 0.018059194
-0.07840362 -0.11723233 0.28860775 0.07396949 0.24305904 0.13121691 -0.059448868 0.0632822
0.22643778 -0.08825061 -0.09207359 0.11614535 -0.16566156 0.05547941 0.22398408 -0.036018614
0.064087294 0.015663007 0.047329105 -0.1296669 -0.2053216 0.005095136 0.14102615 -0.025179245
-0.038082357 0.021042902 0.05355387 0.0913975 0.23855716 -0.18240215 0.12994213 -0.08765856
-0.0088275 0.18638422 0.018273588 -0.22636318 0.22577532 0.17229933 0.33457777 -0.16890655
0.049011175 0.15050514 0.027286336 0.15235697 0.32286444 -0.21959849 -0.18884836 0.11212552
0.19708934 0.02599865 -0.0072510354 -0.11120868 -0.2798918 -0.0137826055 0.046250384 -0.0915123
-0.0125904 -0.1256195 0.0045603956 -0.101877 0.22294359 0.16578044 -0.21017814 0.19606848
0.13980718 -0.091972865 0.2883673 0.28427395 0.096068956 -0.13753985 0.09773518 -0.009939707
0.113407925 0.06972596 -0.06335498 -0.3840163 0.09508013 0.049659003 0.106962204 0.17074129
0.08305104 -0.14944114 -0.14068513 0.13077153 0.18891345 0.10680646 -0.05150066 0.13972737
-0.22160298 -0.040264916 0.10995711 -0.06770564 -0.15833431 0.11157909 -0.06681085 -0.110771805
0.0978786 0.21907268 -0.38390034 0.161658 0.23127677 -0.1492474 0.15792346 0.12343471
-0.41624504 -0.13612221 0.049238086 -0.013567315 0.25705984 0.2915148 -0.018887185 0.12913042
-0.15346423 0.05947268 0.06673207 0.25416464 -0.0128695145 0.17897706 -0.22667412 -0.072521895
0.031897213 -0.14319673 -0.0047078407 0.20784838 -0.23284483 -0.1469136 0.20258228 0.17573938
-0.24459565 -0.05144067 0.04659283 0.28035513 -0.060282636 0.11874622 -0.14054087 -0.060723532
0.15457802 -0.07766224 -0.2194684 -0.095495865 -0.12617376 0.02865985 -0.14738582 0.16419567
-0.12169079 -0.040052988 -0.13244024 0.122973666 -0.13718505 0.122375265 -0.09614386 -0.04290405
0.017323533 0.15299946 -0.10932987 -0.01921764 -0.040081248 -0.04900445 -0.024979956 0.15260129
-0.22453319 -0.15510729 0.17643823 -0.14985245 0.012727598 -0.07664772 -0.028861668 0.11999196
-0.20249315 -0.19835794 -0.0734902 -0.02711199 -0.08847486 0.31216756 -0.39136463 -0.115381375
0.08735906 -0.1649724 0.020473816 0.21907182 -0.31159836 0.033732627 0.12840615 0.06002956
-0.04090496 0.06007472 -0.33542895 0.07714099 0.061617166 -0.084136225 -0.14646105 -0.036690384
0.03569281 -0.114144996 0.22540066 0.13848811 -0.08196252 0.037403606 0.26663756 0.10659632

layer_2_conv/Conv2D_bias f4 [12]
00000000: 445c b83d b276 573d bf71 563d 6912 b53c
00000010: d367 023d e37a 563d 360c 51bc d392 383d
00000020: 65a5 ea3d 1672 763c 10f2 3237 6e15 5f3d
0.09001973 0.05260343 0.05235457 0.022103505 0.031837296 0.052363288 -0.012759259 0.045061897
0.11457328 0.015041849 1.0665986e-05 0.054463796

layer_2_conv/weight f4 [12, 5, 5, 6]
00000000: 337e 7b3d 4fb0 92bc 15f5 5dbe 4298 aa3d
00000010: f341 afbd 0146 11be e0ef 2abe dab4 edbd
00000020: 5911 e63d 71a8 96bc 9a47 55be 5edb 1abd
00000030: 9842 d03c b0ed 9e3c ed7a ba3c edec 4a3e
00000040: 041e 03be 2c5e 57bd 71e4 fabd c0b8 a93c
00000050: 5e19 673e e9b4 6ebc 6efb 48bd 8db4 12be
00000060: 78db 98be 80f0 c9bb 9c9f 123e d824 203d
00000070: 13bb d1bc 0f74 8d3d a7df 833e 1df0 5e3d
00000080: 5745 fcbd 3422 ba3d 6b1f 13bb bfd5 a63c
00000090: 3252 07be d34e c73c d55b 183e ebad ba3d
000000a0: 9311 163d 2752 dc3d cdc8 47be 15f3 dabd
000000b0: 3aaa 073e cd89 a0bc 7dab 43be 2d0a 5c3c
000000c0: b339 d0bd 5823 f03c baf2 b23d ffcc b43c
000000d0: 92ac f2bb 9d54 623e 7ed0 babd f74c 00bd
000000e0: eb56 fd3d 029f 993d 9814 c8bd 853c 2f3e
000000f0: 718b 0f3e 8d0d 903d 846c 56bc d01b 263e
00000100: b249 673d 04d0 7bba 3d7f 30bd 41ac 253e
00000110: 1250 763e f17e 163d dabb 24bd a45d 073e
00000120: ea6c 693e 1b30 c6bd d9c2 353d 705d fdbd
00000130: bc4d aabd 3b11 0a3e c502 16bd 38a8 db3d
00000140: 1c84 043e 20de cb3c 6868 fcbd 7ce8 9abc
00000150: 26b7 3abd 5fea 3d3e 2a96 78bd 303f 6fbd
00000160: a2b8 44be 6fc0 99bb 32fc a63c 47ac 16be
00000170: a783 9e3c 00e7 f73d 76c5 5e3e 43e0 dc3d
00000180: 3278 273e e94c df3d f91e d43d 170c cabd
00000190: f845 633e 05e6 203e 7214 1e3e 20ee c2bd
000001a0: be9f 253e a3b6 a2bd 57b4 8fbd bf54 843e
000001b0: b601 1ebd bd55 2b3d fdac 323d 094e 5bbe
000001c0: 2e9c 0c3d f3a3 393e 554a 60bb a89f 393e
000001d0: 5ec6 4dbd ffac 01be 642a 47be c945 9abc
000001e0: dc7a ad3d 50e2 d43c 86bd fbbd 4d27 edbb
000001f0: 8dd3 513e fef1 a23b 3a64 2b3e 622a 2d3e
00000200: 04a5 383e 32f3 27be 140f 603c dc40 203e
00000210: 240a 74bc 8c2a eb3d aeb3 cfbb 1df8 0bbe
00000220: 6bd8 9fbd bf92 393e d586 70be 4cb6 f7bd
00000230: ac56 2a3e 3ec3 26bd c010 75ba 61dc b73d
00000240: 954e b6be 00b4 d2ba 8615 13bd 4e6a 20bd
00000250: d505 ebbd ab07 403d 6e96 c4bd 7559 18be
00000260: b643 503d 4a7a 8d3d e255 00be 0176 47bd
00000270: 3a81 853d d02a e83d a19e 4c3e 7271 213d
00000280: d369 9cbd d798 823d a456 fbba 40bc de3d
00000290: a703 de3c b65f 723d 38e2 22be 5573 febd
000002a0: 5580 17be 03b7 603e e84d 073d c08e 82be
000002b0: 8ea8 783c d73f 423d 7397 ac3d 713d fd3d
000002c0: f7af 063e 3133 df3c 14ae 533e e86a d8bc
000002d0: 3c64 9a3d f0ed 09be 0b5e 2d3e 59b4 833d
000002e0: f901 52be 2a79 6a3e 199c 53be 7337 2e3d
000002f0: 6fde 633d d4b9 b2bc 8700 8fbd f925 443d
00000300: b85e 62be 28b3 2a3e 4b78 e63c 1a94 23be
00000310: 974f 573d ff7e 023e 24fc c03c dddb cb3d
00000320: 1e1c 82bd 6de9 41be 5506 babc 7248 23be
00000330: bc79 1ebe 9c5d 583e d022 b2bd ac19 9abd
00000340: 2aaa 1f3e e80a fcbd 4744 d03b be92 db3d
00000350: 8d78 463e dc79 503e e891 48be 297d a43d
00000360: ab5b 12be 7c14 c63d c1bd bb3d ce14 423d
00000370: 0ba1 1abd 67f4 c9bc 4930 6ebe 7189 0f3e
00000380: 361d dfbd 475a 64be e26a 29bd 41f6 87bc
00000390: aacb 19be d249 7b3e 261a 28be 7e1a c73d
000003a0: 2d39 74bc 63e0 2dbe efa7 81bc ef27 9b3e
000003b0: 3d00 00be 1d66 483e caf8 873d b71e 37be
000003c0: 9af9 71bd d482 7bbe 5f5a 623e d1ed e13d
000003d0: 0c20 193e 98ef 323d b8c2 5bbe eff9 3d3e
000003e0: 55bb 05bd 8970 14be a1b4 eebd 0da4 6d3c
000003f0: 05e9 89be dd9d 943d 7271 eebd 7fd5 bf3d
0.06139965 -0.017906336 -0.21675523 0.08329822 -0.08557501 -0.1418686 -0.16693068 -0.1160676
0.112337776 -0.018390866 -0.20828095 -0.03780686 0.02542238 0.019400448 0.022763694 0.19816943
-0.12804419 -0.052580044 -0.12250603 0.020717978 0.2256827 -0.0145694995 -0.049067907 -0.14326687
-0.2985494 -0.006162703 0.14318699 0.039097637 -0.0256019 0.06906902 0.2575657 0.05442821
-0.12317913 0.09088555 -0.0022449146 0.020365594 -0.13214949 0.024329579 0.14878781 0.091152035
0.036637854 0.10757857 -0.19510193 -0.106908955 0.1324853 -0.019596959 -0.19108386 0.0134301605
-0.10167255 0.029313728 0.08737703 0.022070406 -0.007405826 0.2210259 -0.09121798 -0.0313234
0.12370094 0.075010315 -0.09769553 0.1711293 0.14018036 0.070338346 -0.013087396 0.16221547
0.056466766 -0.0009605887 -0.043090094 0.16178991 0.24053982 0.036742155 -0.04021821 0.13219315
0.22795454 -0.09677144 0.044375274 -0.123713374 -0.08315608 0.13483135 -0.036623735 0.107254446
0.1294102 0.02488619 -0.123246014 -0.018909685 -0.04558482 0.18546437 -0.060690083 -0.05840987
-0.19211057 -0.0046921293 0.020383928 -0.14714156 0.019349886 0.12104607 0.21755013 0.10784962
0.16354445 0.10903341 0.1035747 -0.09865587 0.2219466 0.15712745 0.15437487 -0.09518075
0.16174218 -0.079449914 -0.07016819 0.25845906 -0.03857585 0.041829813 0.043622006 -0.21416487
0.034328632 0.18128948 -0.0034223993 0.1812731 -0.050238006 -0.12663649 -0.19449764 -0.018832104
0.08470699 0.02598682 -0.12292008 -0.007237351 0.20490856 0.0049726954 0.16737452 0.16910699
0.18031698 -0.16401365 0.01367547 0.15649742 -0.014894996 0.114827245 -0.006338558 -0.13668866
-0.0780495 0.18122385 -0.23488934 -0.12095317 0.16634625 -0.04071354 -0.0009348504 0.08977581
-0.35606828 -0.0016075373 -0.0359092 -0.03916388 -0.11475722 0.046882313 -0.09599005 -0.14877875
0.050845824 0.069080904 -0.12532762 -0.04869652 0.06518789 0.11336291 0.19982387 0.03941483
-0.07637372 0.06376808 -0.0019175601 0.108757496 0.027101351 0.05917331 -0.15906608 -0.124243416
-0.14795049 0.21944813 0.03303328 -0.25499535 0.015176905 0.047424164 0.08427324 0.12365235
0.13153063 0.02724609 0.20671874 -0.026418164 0.075386494 -0.13469672 0.16930406 0.06430883
-0.20508565 0.22897783 -0.20665015 0.04253335 0.05563205 -0.021817125 -0.069825225 0.047887776
-0.22106445 0.16669905 0.028133532 -0.15974465 0.052566137 0.12743758 0.02355773 0.09954045
-0.06353019 -0.18936701 -0.022708097 -0.15945604 -0.15476125 0.21129459 -0.08698046 -0.07524428
0.15592256 -0.12306768 0.0063557955 0.10721348 0.19381924 0.20358986 -0.19586909 0.08031685
-0.14292781 0.09671876 0.09167052 0.047383122 -0.03775124 -0.024652673 -0.23260607 0.14017273
-0.108942434 -0.22300063 -0.041361697 -0.016596915 -0.15019098 0.24539879 -0.16416225 0.0972185
-0.01490621 -0.16980128 -0.015827147 0.30303904 -0.12500091 0.19570203 0.066392496 -0.1788281
-0.05907593 -0.24561626 0.22104786 0.11031688 0.14953631 0.043685526 -0.21460998 0.18552373
-0.032649357 -0.14496054 -0.11655546 0.014504445 -0.26935592 0.072566725 -0.11642732 0.09366893

layer_3_conv/Conv2D_bias f4 [24]
00000000: 2f6d 5b3d b5d2 153d 336e 1dbc 186f 613d
00000010: 409f 3f3c a599 e13c 35f4 91bb 644b 243c
00000020: b77a c83c 9391 d4bc f362 b3bc bce1 913c
00000030: 1390 923c 481a 2abc a51a fdbb f0f7 aebc
00000040: 6237 363d 75b7 10bd 4dd1 8f3d 19f9 cc3c
00000050: b37b 413c cd91 7dbc 3ca5 b03d 821a 313c
0.053570922 0.0365779 -0.009608793 0.055037588 0.011695683 0.027539084 -0.0044541606 0.01002774
0.024472577 -0.025948321 -0.021897769 0.017807834 0.017890966 -0.0103822425 -0.0077241235 -0.02135846
0.04448641 -0.03533121 0.07022343 0.025021123 0.011809277 -0.015476656 0.08625266 0.010809543

layer_3_conv/weight f4 [24, 4, 4, 12]
00000000: a9ff 983d f3be ab3d 1859 983d 71a9 15bd
00000010: fe3f fb3d ac24 053e d402 69be 1702 073e
00000020: 0710 9e3d c415 0c3d 22c8 a6bd c112 f2bd
00000030: 39d1 0ebe 82ef cd3d 086c 3cbe b371 7e3b
00000040: 971b 44bd 8ac5 883c a0be 28be a142 ab3c
00000050: 11ad 52bc 63be 4cbe f840 683d da2b 38bd
00000060: 93a9 a33d c9ac 0a3e 1646 d2bd 9a56 d73d
00000070: ee42 49be 4fdb 693e 265c 92bd ce62 afbd
00000080: b967 3ebc 5ffd c4bc 69ad 0d3e 25a3 77bd
00000090: 88bc cfbd 89af bc3d 5680 8abb 36b3 83bd
000000a0: 02f9 5f3b 129f 4ebc 5ad5 273d a6e4 683c
000000b0: 83ff a5be a20b e43d 590e 17bd 4517 f6bd
000000c0: 1886 863c add8 de3d cb24 d33d 7caf 12be
000000d0: a98f dfbd f6be f73a e1a0 3fbb 9201 a23d
000000e0: f1bd 363e 47de 323e 4cbf 88be 42ab f93d
000000f0: 816e 063d 1ccd 2c3e 2bef 6b3d 13b3 9ebe
00000100: a6eb 4c3e 6faf 0d3d 0f75 8a3b c2b8 033e
00000110: 60de 453e dc92 e73d 1d70 45be 058e 533e
00000120: 8a9a 2cbe 545a 8d3e 0b35 55be c19b 1ebe
00000130: aabb 3ebd 7fd1 ba3c cf82 4abe e9ca 433d
00000140: ab6d 723d d742 2a3e c1cc 1abd 7c93 8cbc
00000150: 85bc 31be 3373 ac3d f1a5 3abe 9c19 dc3c
00000160: 5174 173e a22b 99bd ebe2 d2bd dd65 fbbc
00000170: a3f0 c4bc e51e eabd 2ef0 4b3d c550 02be
00000180: d62d 003e 0dfd 71be 0106 143e 57fc babe
00000190: 2abb 57be 991f 78bd d14e c33c 5e15 923c
000001a0: 310d 2abe 7553 07bd 2cd9 0d3d 2555 b3bd
000001b0: c4f2 513d deac ac3d c180 193e a189 83be
000001c0: 26dd 0d3d 5e5f 85be 5b5b cc3d 27f6 edbd
000001d0: 47da 0ebb 3b1d 083e e4aa b6bc c88f 293e
000001e0: d2ef 803d 7a7a e93c 4452 e73d 6c7a 6dbe
000001f0: 17a8 99bd a6da 9abc 7cf1 cebd eec8 a53d
00000200: afc8 713e dc10 0f3e 9d80 9b3d 538e 39bd
00000210: 5063 34bd ed96 363d 7f29 5c3e c7cc 023d
00000220: e47c 12bd f26d be3d f9fd eebc e548 283e
00000230: 07ac b73d c30c 913d 31f4 d2bb 808d c2bd
00000240: 25f9 08bd 6ae5 acbd 3ac0 233d 019a ce3d
00000250: 894f 65be 77ef 9a3d d720 373d a1a4 243d
00000260: 3832 91bd 863d 8d3d b168 c9b9 b174 53be
00000270: 57fb fa3d 2a7d 42be 66df 5b3e 5475 41be
00000280: 5975 c53c bf54 0e3d a1f0 823e 7923 b73c
00000290: f66f ccbd 6cc3 0e3e 9312 cbbc 07df 4cbd
000002a0: b2bb 203e 9d47 d3bc 55ec 783e 9376 babe
000002b0: 8f7c 04be 56c5 963d aa9a a6bb b843 243e
000002c0: f29c 37bd 8f89 423d 36d9 4cbd 9457 58bd
000002d0: fc67 bc3d 95bf 48be 9004 f5bd 47e2 82bd
000002e0: e59a 8fbd 7622 b1bd 74bb dbbd 63e8 62bd
000002f0: 6a87 58be b08a 203e 85f9 7dbd fd50 433e
00000300: f7b3 28bd 50a6 623e 2faf 993c 9493 e0bd
00000310: 2041 e53d a0cf 093e 5a92 4cbe 6966 92be
00000320: 4956 833c 8794 563d 05f8 bcbc 90d0 9dbb
00000330: 5234 b43c cd72 76bd 1953 b1bd 0c17 943d
00000340: de9c 923e 471d f8bd d0cb 37bd a053 4ebd
00000350: 2950 8bbd 7918 0f3d 4a3d dc3d 4593 5fbd
00000360: 944d 42bc e710 203e a1f5 18be 8c4b 4bbd
00000370: c4c6 1d3e d99a 463d d0a5 e0bd b6f8 003e
00000380: 0539 10bd 1295 13bc 2554 2b3e f79b f53c
00000390: 9f9f c1bd 15af 62bd 0bbf 2cbe cddb e63c
000003a0: 49e1 69bd 47f6 60be ad4d 22be efe4 06be
000003b0: bbee 2e3e cad5 b43d 6f1a 79bd 586d b2bd
000003c0: 966c 5dbb d6f2 e13d 9191 cbbd 0db3 40bd
000003d0: 8159 a13b 7230 69bd 8fc2 133d fb65 823e
000003e0: 255c b6bb 8bb3 a9bd 896e 133e 1c25 063e
000003f0: 2945 d9bc 72f1 2c3e f0f3 1e3d 613b 14be
0.07470638 0.0838603 0.07438868 -0.036538545 0.12268065 0.1300227 -0.22754985 0.13184391
0.07717901 0.034200445 -0.08143641 -0.11819983 -0.13947 0.10055448 -0.18400586 0.0038825094
-0.047877874 0.016695756 -0.16478968 0.020905795 -0.012858645 -0.19994502 0.056702584 -0.044963695
0.07991328 0.13542475 -0.10267274 0.10514565 -0.19654438 0.22837566 -0.07146482 -0.085637674
-0.011621409 -0.024046598 0.13835682 -0.06045832 -0.10143381 0.09213168 -0.0042267246 -0.06430666
0.003417552 -0.0126111675 0.040974952 0.01421467 -0.32421502 0.11135031 -0.036878917 -0.12016157
0.016421363 0.108811714 0.10309752 -0.14324754 -0.10916073 0.0018901515 -0.0029240178 0.07910456
0.17845894 0.17467605 -0.26708448 0.12190868 0.03282023 0.16875118 0.057601135 -0.30995998
0.20011768 0.034591135 0.0042253803 0.12863448 0.1932311 0.11307308 -0.19281049 0.20659645
-0.16855827 0.27607977 -0.20821016 -0.15489103 -0.04656569 0.022804974 -0.19776462 0.047800932
0.05918662 0.1662706 -0.037792925 -0.01716017 -0.1735707 0.0842041 -0.18227364 0.02686768
0.14790465 -0.074790254 -0.102971874 -0.03068822 -0.024040526 -0.11431674 0.0497896 -0.12726124
0.12517485 -0.23631687 0.14455415 -0.36520645 -0.21067491 -0.06057701 0.023841294 0.017832454
-0.16606595 -0.033038575 0.03463094 -0.087564744 0.05125691 0.08431409 0.14990522 -0.2569094
0.03463473 -0.26049322 0.09978362 -0.116192155 -0.0021797584 0.132924 -0.022298284 0.16558754
0.06295742 0.028500784 0.11294988 -0.23191231 -0.07502764 -0.018903088 -0.10104653 0.08094965
0.23611711 0.13971275 0.075928904 -0.045301747 -0.044040024 0.044577528 0.21500205 0.031933572
-0.035763636 0.09298314 -0.029173838 0.16434057 0.089683585 0.07082512 -0.0064378013 -0.09499645
-0.033440728 -0.08442195 0.039978243 0.10087968 -0.22393622 0.075652055 0.044709053 0.040196065
-0.070896566 0.068965 -0.0003841571 -0.20649983 0.122549705 -0.18993059 0.21471938 -0.18892413
0.024103807 0.03474879 0.2557421 0.022355782 -0.09982292 0.13941735 -0.02478913 -0.050017383
0.156966 -0.025790984 0.24308904 -0.3641859 -0.1293814 0.073618576 -0.0050843554 0.16041458
-0.04482741 0.047494467 -0.050011836 -0.052817896 0.09199521 -0.19604333 -0.11963761 -0.06390815
-0.07011966 -0.08649151 -0.10729113 -0.055397402 -0.21145406 0.15677905 -0.06200554 0.19073863
-0.041187253 0.22133756 0.018760292 -0.10965648 0.11194062 0.13458109 -0.19977704 -0.28593758
0.016032355 0.05238774 -0.023067484 -0.0048161224 0.021997605 -0.060168076 -0.08658428 0.07230958
0.28635305 -0.12114959 -0.044872105 -0.05037272 -0.06802399 0.03493545 0.107538775 -0.054583807
-0.011859316 0.15631448 -0.1493745 -0.049632594 0.15407854 0.048487518 -0.10969126 0.12594876
-0.035210628 -0.009007709 0.16731317 0.029981596 -0.094542734 -0.055342752 -0.16869752 0.028180981
-0.057099614 -0.21968947 -0.15849943 -0.13173269 0.17083256 0.088298395 -0.060816225 -0.08712262
-0.0033786646 0.110326454 -0.09939874 -0.047045756 0.004924 -0.056930967 0.036074217 0.2546843
-0.0055651837 -0.08286198 0.14397635 0.13100094 -0.026522236 0.16888979 0.038806856 -0.14475776

layer_4_fc/MatMul_bias f4 [200]
00000000: bef4 1fbd 1b06 603c 3c66 26bd c84e 1cbd
00000010: cbde 283b 6f7a 0b3d 1d30 3c3d d017 a43c
00000020: 8259 f23b bf4f 1cbd ff94 85bd 4e89 19b9
00000030: 7dcb 603c 42e1 f83c bc6d 063c bc00 9abd
00000040: 9fc8 0abc 6f35 103c f4a6 853c d237 18bc
00000050: d2f1 323d ce43 bdba 0177 dc3a 13b4 203d
00000060: c90f 6abc adda c0bb 3216 88bd 51d9 933b
00000070: 4c28 8fbb 5f1c debb 3027 3abd 5546 903d
00000080: 4787 753c 904f 30bc 0271 0cbd 616c a83d
00000090: f702 8dbd e581 113c f691 733c 75af 82bc
000000a0: e216 c13b dc42 34bd a27e 163d d05a e23c
000000b0: 3ab1 07bd 25a9 e83c 091a 023c 7cb4 b1bc
000000c0: 7100 3c3d dd33 943b 35ab ec3b dd93 babc
000000d0: 7843 8cbd 7bc5 583c c447 ec3c 2d34 533d
000000e0: 9963 07bd c2bb 13bd 9721 9939 4e49 43bc
000000f0: 7bec 133d 6a6d 2a3c 489f 223c 61df 723c
00000100: b254 3dbd f85d 7e3c 167e 35bd 26d7 3c3d
00000110: 7443 f1bc fa41 fb3c 97c5 e3bc 847f 30bd
00000120: 6782 d83c 81dc ea39 e534 1c3d e063 9dba
00000130: a5c9 63bc 4622 3cbd 5f8b a63c 0acb 9b3a
00000140: 6d6a d33c 8aa8 14bd 04f0 6ebd e807 c3bc
00000150: 2808 123d 253b 893d 7207 20bc b7be af3a
00000160: 86af 0e3d 98ad b9bc 0236 093d 4d3d f43c
00000170: 47c8 59bd 3d34 fd3c d28d f4bc edea bcbc
00000180: d7aa 883a 81d0 96bc 00f2 ad3a 2dea 1d3c
00000190: c848 2fbb 872e 883c 7fcd 03bc a4d7 1339
000001a0: 0543 47bb 7c39 dcbc 68ab 41bc 559b 4d3d
000001b0: 4de9 2fbd ec48 203c 8007 1bbd 1fc9 a43c
000001c0: ec9f 51bb 40dc 473d f6f2 523d 8231 413d
000001d0: 93cc bf3d ae1c 943c 594a 39bd 025d e93c
000001e0: 5fb6 27bb 753a 70bd f0ef e53c c0a7 31bd
000001f0: 42c9 6ebc a14a 14bd c12c 02bd 95f4 2f3c
00000200: 94c5 c1bc d82c 1bbc 9bbe c0bc 10ee 003d
00000210: 186a abbc aea8 133c 4fb9 183a f4db d03c
00000220: 5e23 38bd 60e5 873d f230 073d d8a4 273c
00000230: fb50 38bc b5d4 2d3d c765 4a3d cd76 e23c
00000240: f7a0 04bc e752 b43c bd48 953d 79c0 933c
00000250: 2065 313d 0de2 6e3d 02d2 5a3d 5693 8bbb
00000260: 098c 08b9 b388 f43c c98e cd3a 7a56 813c
00000270: 46cb 10bd 525f e3bc a012 efbc 9313 96bc
00000280: ec31 86bb 12a7 873d 99b9 d3bc 7e4f a63c
00000290: 454e 1fbd cf51 c6bc 3f3b 1abd 317d b9bc
000002a0: cf28 1f3c 759b 80bc 8e12 c0bc 2e94 04bd
000002b0: fd2e 923b c2ee 523c e216 91bb 9467 813d
000002c0: 17cc b63c 107c 38bd d8dd ea3c 7737 cebc
000002d0: b7af 0d3d 35dd 7f3b aee0 7a3d 2968 92bc
000002e0: cc90 803b 0140 29bd 0bea cbbc 7b06 27bc
000002f0: c9d5 2f3d 466b 8d3c f9f6 9a3d c877 c33c
00000300: 72ad 02bd 6d01 37bc 84f9 723d 52df 843d
00000310: 07ba 933c b1b9 babc 54ae 9c3c 4e06 1fbb
-0.039051764 0.013673331 -0.040624842 -0.03816107 0.002576756 0.03405231 0.045944322 0.020030886
0.007395924 -0.03816199 -0.065225594 -0.00014642367 0.01372039 0.030380849 0.008204874 -0.07519671
-0.008470683 0.008801802 0.016314961 -0.009290652 0.04368765 -0.0014439763 0.0016820134 0.039234232
-0.01428599 -0.005885443 -0.066448584 0.00451199 -0.0043688174 -0.0067782844 -0.04544753 0.07044665
0.014985866 -0.010761157 -0.03428746 0.08223797 -0.06885331 0.008881067 0.014866343 -0.015952805
0.0058926204 -0.044009075 0.03674186 0.027631193 -0.033128 0.028400967 0.007940778 -0.021692507
0.04589886 0.004522784 0.007222558 -0.022775585 -0.06848806 0.013230677 0.028842814 0.05156343
-0.033053968 -0.03606773 0.0002920746 -0.011919333 0.036114197 0.010402063 0.009925671 0.0148237655
-0.04622335 0.015525334 -0.044309698 0.04610362 -0.02945111 0.030671109 -0.02780418 -0.04309036
0.026429368 0.00044796246 0.03813638 -0.0012007914 -0.013903056 -0.045931123 0.02033013 0.0011886072
0.025807584 -0.036293544 -0.058334365 -0.02380748 0.03565231 0.06700734 -0.0097674 0.0013408278
0.03483536 -0.022665784 0.03349877 0.029814387 -0.053169515 0.030908698 -0.029852781 -0.02306124
0.0010426891 -0.01840997 0.0013270974 0.009638351 -0.0026746262 0.016623748 -0.0080446 0.00014099345
-0.0030404937 -0.02688288 -0.011820652 0.050196964 -0.042947102 0.009783011 -0.03784895 0.020115433
-0.003198619 0.04879403 0.051501237 0.047166355 0.09365191 0.018080082 -0.04523692 0.028486732
-0.002559088 -0.0586495 0.028068513 -0.04337287 -0.014574351 -0.036203984 -0.031780962 0.010739465
-0.023653783 -0.009471141 -0.023528388 0.031477034 -0.020924613 0.009012384 0.0005825953 0.025495507
-0.044955604 0.06635547 0.033005662 0.010232173 -0.011249776 0.04243918 0.04941347 0.02764454
-0.008095018 0.022012187 0.07289264 0.018036114 0.04330933 0.058321048 0.053422935 -0.004259507
-0.00013022138 0.02985034 0.0015682812 0.015788306 -0.035350107 -0.027755413 -0.029183686 -0.01831988
-0.0040953066 0.06623663 -0.025845336 0.020301577 -0.038893003 -0.024208931 -0.037654158 -0.022642704
0.009714319 -0.015699128 -0.023446348 -0.032367878 0.004461168 0.012874307 -0.0044277767 0.06318584
0.022314114 -0.04504019 0.028670236 -0.025172932 0.034591403 0.0039041762 0.061249427 -0.017871933
0.003923511 -0.041320805 -0.024891874 -0.010194416 0.04292849 0.017263066 0.075666375 0.023860827
-0.03190369 -0.0111697735 0.059319988 0.064879075 0.01803304 -0.022793623 0.019126095 -0.0024265232

layer_4_fc/weight/transpose f4 [200, 1176]
00000000: e812 ecb9 ad39 f43d 7a45 843d c64a d13d
00000010: 28b0 58be 560a 51be 77df f0bd 8dfe 50be
00000020: e1ff 513d 6bf9 483e 0183 103d 7d55 71bd
00000030: b860 0bbd 8058 85bc d50a 8a3c f3e6 9f3d
00000040: cbc6 113d d202 ed3c a4a8 b6bb 8adf 0bbd
00000050: 6d63 243e fa58 303e 3d8c 903d d71d 05be
00000060: 4493 333e 5c71 ee3c d5f9 27be 021e 473d
00000070: aa50 c9bd ae68 3d3e 2866 85bd db37 b7bd
00000080: 5449 32bd 3086 6ebc 40e1 2bbe 8ba7 453c
00000090: 0328 b83d 7c6a ebbd 4625 1f3e 005c 98be
000000a0: f956 e43c cf2d aabd e867 ffbc 9ea1 32be
000000b0: e99b 8e3c ea22 713e ed7f 46bd 23f9 633d
000000c0: 2963 fbbd 66c5 cbbd 2cf5 d4bd 7da5 c83d
000000d0: ed86 5d3e f6a2 b2bd 72ce 26bd 8ecc 343e
000000e0: 2a9e 03be be7e 0e3d e03b dbbd 6122 4f3d
000000f0: bae7 fe3d e0cf 683d 163d 723c 6653 93bd
00000100: 2b2a 81bb 5f3f 8a3c 8f3b cdbc 9003 1ebd
00000110: d907 743e 85d3 aa3d 4e07 503d ff75 0abd
00000120: 60f6 44bc bf53 1c3e 84c6 07bd 324e a0bd
00000130: d9dc 8abe 8755 323e b421 293e 69ef 8ebe
00000140: 3498 d8bd e1d0 d73c af34 673b f435 9b3c
00000150: e386 00be 2701 bd3d bb3b 6abd d1be 2bbc
00000160: 70df ad3c daad 44bd 9904 efbd 0f6f 9f3d
00000170: ce35 14bd d925 9f3d 5492 953d 1cae a93d
00000180: 595d 503d 477e c13d 5dc9 ad3d a180 80bd
00000190: c32b 2cbe 4514 1c3e bb52 dcbd 4de1 a83d
000001a0: 875c e7bd 3fa2 a7bd e626 cf3d a795 cd3c
000001b0: 1444 cdbe 1fc4 efbc 04e5 883e d588 15bd
000001c0: 7050 d1bd 18ca 0ebc 20d5 c13c 008f 1e3d
000001d0: 0f76 013e 674d d53d 78db 5f3e fb19 86bd
000001e0: bf87 7b3d 998e 38be 6503 5a3c a08c 233e
000001f0: 7a6a b63d 23b4 873e 2845 01be 88b9 8fbe
00000200: 0c75 9f3e 6ee1 8ebe 3712 413c 05f5 943d
00000210: 637a a93c 422d 2d3e 790c ee3d b6c5 3abe
00000220: 2f79 2fbe 72eb 6fbd 2379 43be abdd d6bc
00000230: e8cf 9abd ec08 0e3e 4305 09be 1219 ccbd
00000240: d4d2 a5be e513 78be dd9e 02be 453d 14be
00000250: 6296 753e e35b d1bd 985e 59bd 0018 3d3d
00000260: b51c 5d3e c4f4 18bd 2e97 833d 2a8a 713c
00000270: db61 073d 63b5 7abd e068 093d deeb abbd
00000280: 178e 10be 1b9a ccbd 6f0b 67be 13b9 d7bd
00000290: 83b7 06bd c7d7 923e 62f7 01be 6ab6 25be
000002a0: 7311 2d3e 8772 16bd 5c15 aa3d 2c23 083e
000002b0: 53d3 713d 788c bb3d e8e9 19be 4cdc f33d
000002c0: f9df 803d c308 50be da76 333e a35a d8bb
000002d0: 35aa 663d 663b 0bbe 9e63 5cbd 87d9 bc3c
000002e0: 17ae 0d3c db75 05bc 8e3c 5f3e 709c 01bc
000002f0: d873 0dbe 55bb 87bb 25ad 5c3e 50e0 873e
00000300: 50e7 71bd 0302 d4bd 77da 033e 8b5d 9c3c
00000310: 0c9f d83d 2767 543e 3623 e03c 6d62 5cbe
00000320: 630a 5e3d fcd8 54be 2a9c 38be a289 f7bd
00000330: 1b83 c73c a69a 11bc af0b 013d c14c 303c
00000340: 9e65 d53d ade1 f6bd 6547 02bd a7ac 00be
00000350: 0723 8dbd 44e5 843e 0669 aabd e881 88be
00000360: edfd 1bbe 684b 01be 3cc8 35be 41e8 76be
00000370: fa53 3d3e c895 9d3c 68aa 653d 0c7a 183d
00000380: eeb4 1dbd d71d 03be 9d6c 8cbc b9df 953d
00000390: 6ecc 34be c7af 48be 322a 11bd 8bf4 efbd
000003a0: d899 cc3d a8d8 c93d 542e 633e 9dda cbbc
000003b0: 6d52 e6bd 526b 7bbe 0a8f a3bc d381 293e
000003c0: d38d 38bd 62d8 4d3c 4df4 713d 1f95 6f3e
000003d0: 01e6 abbd a758 103d cf64 bd3b 12b1 c73c
000003e0: 17fd 343e c821 923e 66bc 2d3d acd8 9b3e
000003f0: 885e 4dbe d1a4 073e f0ba 843d 6414 97bd
-0.00045027514 0.11925063 0.06458564 0.1021934 -0.21160948 -0.20414099 -0.117613725 -0.20409603
0.051269416 0.19626395 0.035281185 -0.05891942 -0.034027785 -0.016277552 0.016850868 0.07807722
0.035589974 0.028932009 -0.0055743027 -0.03414873 0.16053553 0.17221442 0.07057998 -0.12999664
0.17536646 0.029106788 -0.16403897 0.048612602 -0.098298386 0.18496963 -0.065136254 -0.089462005
-0.043526962 -0.01455836 -0.16785145 0.012063871 0.08992007 -0.1149492 0.15541562 -0.2975769
0.027873503 -0.083095185 -0.031177476 -0.17444465 0.017408328 0.23548475 -0.048461843 0.055657517
-0.12274773 -0.0994976 -0.10398325 0.097971894 0.21633501 -0.087224886 -0.040724225 0.17656156
-0.12853304 0.03478884 -0.107047796 0.050569896 0.12446542 0.05683887 0.014785072 -0.07193641
-0.0039417944 0.01687592 -0.025052814 -0.038577616 0.23831119 0.083411254 0.050788216 -0.033803936
-0.012021631 0.15266322 -0.033148304 -0.078274146 -0.27121618 0.17415439 0.16516763 -0.2791703
-0.105759054 0.026344718 0.0035279205 0.018946625 -0.12551455 0.092287354 -0.05718587 -0.010482506
0.021224707 -0.04801736 -0.11670799 0.077848546 -0.036184125 0.07770891 0.073033005 0.08285162
0.050870273 0.094479136 0.084856726 -0.06274534 -0.16813569 0.15242107 -0.10757967 0.08246098
-0.11296945 -0.08185243 0.10114841 0.025095774 -0.40091002 -0.029268323 0.26737225 -0.036507446
-0.1022042 -0.008715175 0.023661196 0.038710594 0.12642692 0.10415154 0.21861064 -0.06547924
0.061408754 -0.18023147 0.013306473 0.15971613 0.089070275 0.2650462 -0.12624037 -0.28071237
0.31143987 -0.27906364 0.011784128 0.07273296 0.020688241 0.16911796 0.11623473 -0.18239483
-0.17136072 -0.058574148 -0.19089179 -0.026228746 -0.07559186 0.13870591 -0.13380913 -0.09965719
-0.32387412 -0.24226339 -0.12755914 -0.14476497 0.23983148 -0.10222604 -0.053068727 0.046165466
0.21592982 -0.0373428 0.064253196 0.014742414 0.033052307 -0.06120814 0.033547282 -0.083945975
-0.14116703 -0.09990331 -0.22562955 -0.10533347 -0.032889854 0.2868025 -0.12692025 -0.16182867
0.16901188 -0.036730316 0.08304855 0.13294667 0.059039425 0.09157652 -0.15030634 0.11907253
0.062927194 -0.20315842 0.17525807 -0.0066026016 0.056314666 -0.13596877 -0.05380594 0.023052944
0.008647463 -0.008145775 0.21800444 -0.007910833 -0.13813722 -0.0041422048 0.21550424 0.26538324
-0.059058487 -0.10351946 0.12876306 0.019087574 0.10577211 0.20742474 0.02736054 -0.21521921
0.054209124 -0.20785898 -0.18028322 -0.12086798 0.024354508 -0.008886969 0.031505283 0.010760487
0.104197726 -0.12054763 -0.03180637 -0.12565862 -0.068914466 0.25956166 -0.08320813 -0.2666161
-0.15233584 -0.12626421 -0.17752165 -0.24112035 0.18489066 0.01923646 0.056070715 0.037225768
-0.038502626 -0.12804352 -0.017141635 0.07318062 -0.17656109 -0.19598304 -0.03544063 -0.11716565
0.09990281 0.09855777 0.22185642 -0.024884516 -0.1124619 -0.24552658 -0.019965667 0.1655343
-0.04505713 0.012563797 0.059070874 0.23396729 -0.08393479 0.035240795 0.0057798396 0.024376426
0.17674671 0.28541398 0.042416 0.30438745 -0.20055592 0.13246466 0.06480968 -0.07376936

layer_5_fc/MatMul_bias f4 [10]
00000000: 3a63 eebc d48a ecbc 41ee dbbc b758 8cbc
00000010: 3ff6 003d 028b 1e3c 106d 01bd b662 e5bc
00000020: 4721 ad3d fa05 2bbc
-0.02910005 -0.028874792 -0.026847007 -0.017132146 0.03148484 0.009676697 -0.03159815 -0.02800117
0.08453613 -0.010438437

layer_5_fc/weight/transpose f4 [10, 200]
00000000: 3b63 0e3e 5ffd 9a3d 91bc 433d 4406 93be
00000010: 71b5 5fbd 3db0 65be bf1f 1637 c43e 003e
00000020: c89c 173e 94da 303e cd93 3cbe a835 a4be
00000030: 845c 283e 1a6f 0dbd 7b73 4dbe 51fd 08bd
00000040: 0a85 a2bd 1086 883d 7e2e 07bc e59c 3d3e
00000050: 35b5 56be 6c34 4abe ca51 a73d 76a1 313e
00000060: e198 ca3d e48f cfbd 85e3 12bb 738c 733e
00000070: b5d9 543e b30e afbe 0f13 c23d 3b51 9c3b
00000080: 810d ccbd e3ea 38be 21e9 e4bd b303 02be
00000090: 5dd4 b0bd ffe2 173e 7c40 213c 7593 3abb
000000a0: ca13 30be 676f 7cbe da4b edbd e2a5 30be
000000b0: 35d7 c4be 13c1 75bd e213 87be 2be1 7bbe
000000c0: f7aa 8c3d a1dc 74bd 56c8 b1bc ae04 933d
000000d0: d8e1 d4bd f699 0b3e c234 2b3e bf62 cdbd
000000e0: 5aa0 513e 2b1e 63bd 3a6b 4dbe cf79 9ebd
000000f0: 6f1e 28be c5e8 46bd 9225 e63d 2496 d0bc
00000100: 847c 803e c53c 2ebe 4c0f e7bd 03e1 b73d
00000110: 0035 a03d b0ad 83bd 4e77 3c3e 2f42 39be
00000120: 2de3 933d d27a d3bd 9300 b53d b83b f13d
00000130: f269 2a3e c5f1 3ebe 1345 043d fc7b 2abe
00000140: 4060 e0bc fd71 513c ce90 803d 5042 7dbe
00000150: aa4d 0d3d 3160 11be 8123 3a3d 9085 60be
00000160: ffe9 26be 740f a53d 91ae 0d3d 293f 203e
00000170: abd2 31be 2526 873d faad 50be 307c 88bd
00000180: ec1b f1bd 662b 523c 139f 923d 3597 033e
00000190: 8a76 ec3c 84e6 53bd 13e0 37be d2e6 103c
000001a0: d025 f4bc a9b8 a8be e9cb c6bc e811 19be
000001b0: ad51 70bd bac9 833d 0b5c cc3d 65b7 52be
000001c0: cd3b 53bd 3d65 5339 e5ef 2abe 06e4 bdbc
000001d0: 823c 223d d574 d2bd 8a64 303e 98c4 05be
000001e0: cd46 f0bd 703e dbbd 4448 8ebe f404 af3b
000001f0: 8e32 903d 9406 973d 3c3c 13bd 323a f5bb
00000200: b528 83bd cd04 2ebe c6fa 13be adb3 b5bc
00000210: f4cd 19be a388 74bc aea8 e33d 1ded 87bd
00000220: 1aea 9ebc 1f90 e4bd b4ec ba3d 76b4 053e
00000230: 6c0f 99bd d511 6c3d 2608 8d3c a49e 703c
00000240: 2207 1bbe 6849 1bbd ecfe 16be 92cf 0cbe
00000250: 6927 c1bd 8b2a 25be bb9b 12be fa8d da3d
00000260: 2d9c fabd d041 c0bd 213e 703d 4ca6 0e3e
00000270: 2fb6 21be fca9 cfbd 5187 92bd 2980 1c3e
00000280: 5695 443c ae7c 55bc 1b5c 603d 9f7c b2bd
00000290: af2f d5bd c75f bd3c c1c2 c33d dbef 7d3c
000002a0: 21b3 d33d 435d b9bd a45e 2d3e 20f5 39be
000002b0: 4b23 efbd 0096 47bd 989c 56be e573 793c
000002c0: 464d fabd 2187 bbbc 8be1 be3d fea4 1ebd
000002d0: 05a0 f33d a8c2 9abd 61b5 62bd f9f1 873d
000002e0: 05c7 023e e1e5 3bbe 58af 2a3d ecda 023e
000002f0: abc2 57be f9a1 ca3d 8575 ce3d a6d0 85bd
00000300: de74 213e a333 91be aa49 983e c113 893d
00000310: c4f8 d2bd 840d a1bb 9094 873d 8d1a d13d
00000320: 619b 183e d322 c4bd 8eee edbc daeb a2bd
00000330: c334 e23d 9b26 8e3e 64b8 133d ee9c f93d
00000340: ee93 083e 0c33 6e3d 6234 063e baf5 193e
00000350: c7d1 02be a7c5 38be 2dcf 65bd 5c2a 13be
00000360: ba53 29be d4dc 11bd 5c1b 75be cb35 5abd
00000370: ba62 53bd b937 2e3d 673b 403e 4bae 8c3c
00000380: 60a7 03be d7a7 3ebc d25b ff3c a8f4 08be
00000390: 85ef 53be 5f77 903e 8324 8ebd cc2e 813b
000003a0: 21f9 22bd f936 713d 2970 433d c871 bb3d
000003b0: 2a89 eabd 359d 403d 632c d23c a9b5 37be
000003c0: 1242 933d 0126 1d3e 11df 28bd d38d cdbc
000003d0: b02e 453e ce6b 383e 2416 93be b4e3 3f3e
000003e0: 4f7e 1dbe efde 8c3d 87d2 2b3e 7053 91bd
000003f0: e98e 8c3c 20fc 8fbd 245d 013e 6621 f83d
0.13905041 0.07567858 0.047787253 -0.28715718 -0.054616395 -0.22430511 8.948088e-06 0.12523943
0.14805901 0.17270881 -0.18415757 -0.32072186 0.16441542 -0.034529783 -0.20063584 -0.033444706
-0.079355314 0.066661954 -0.008250831 0.18516882 -0.20967562 -0.1974656 0.08169897 0.17346749
0.098924406 -0.10134867 -0.0022413444 0.23784046 0.20786174 -0.34190902 0.094762914 0.0047704256
-0.09963513 -0.18058352 -0.11177278 -0.12696724 -0.08634255 0.14832686 0.009842034 -0.002846924
-0.17195049 -0.24651872 -0.11586733 -0.1725078 -0.3844544 -0.059998583 -0.26382357 -0.24597614
0.068685465 -0.05978072 -0.021701973 0.07178627 -0.10394639 0.1363295 0.16719344 -0.100286
0.20471326 -0.055448692 -0.20060435 -0.07738077 -0.1641786 -0.04856183 0.11237635 -0.025462218
0.25094998 -0.17015369 -0.112822145 0.089784645 0.07822609 -0.06429613 0.18404886 -0.18091653
0.07221065 -0.103261605 0.08838 0.117789686 0.16641977 -0.18646915 0.032292437 -0.16648859
-0.027389646 0.012783525 0.06277619 -0.24732327 0.034497894 -0.1419685 0.045444015 -0.2192595
-0.163002 0.08059588 0.034590308 0.15649094 -0.1736552 0.06599072 -0.20378867 -0.06664312
-0.11772904 0.01282773 0.07159247 0.1285065 0.028865118 -0.05173351 -0.17956571 0.008844094
-0.029803187 -0.32953385 -0.024267154 -0.14948237 -0.058671642 0.06434961 0.09978493 -0.20577772
-0.051570702 0.00020160242 -0.16693075 -0.02318002 0.039608486 -0.1027619 0.17225853 -0.13063276
-0.11732254 -0.107052684 -0.2778951 0.0053411666 0.070408925 0.073743016 -0.035946116 -0.007483744
-0.064042486 -0.16994019 -0.14451131 -0.022180403 -0.15019971 -0.014925155 0.111161575 -0.06637023
-0.019398738 -0.111603014 0.09127179 0.13057122 -0.074736446 0.057634193 0.0172158 0.01468626
-0.1513944 -0.037911803 -0.14745682 -0.13751057 -0.09431345 -0.1612951 -0.14317219 0.10671611
-0.122368194 -0.09387553 0.058653 0.13930625 -0.15792154 -0.10139844 -0.07154716 0.15283264
0.011998495 -0.013030214 0.05477534 -0.08715176 -0.104094855 0.02311696 0.09558631 0.0154990805
0.103369005 -0.090509914 0.16930634 -0.18159914 -0.116766535 -0.048727036 -0.20958173 0.015225385
-0.1222177 -0.022891583 0.09320363 -0.038731568 0.11895756 -0.07556659 -0.055348758 0.066379495
0.12771232 -0.1834941 0.041671127 0.12778825 -0.21070354 0.09894175 0.10081009 -0.06533937
0.15767238 -0.28359708 0.297437 0.06693221 -0.103013545 -0.0049149413 0.06620133 0.10210142
0.14903022 -0.09576955 -0.029044416 -0.07955141 0.1104522 0.2776383 0.03606452 0.12188135
0.1333768 0.05815415 0.1310592 0.15035143 -0.12775336 -0.18044148 -0.05610578 -0.14371628
-0.16535845 -0.03561099 -0.23936218 -0.053273957 -0.051607825 0.04253361 0.1877266 0.017172953
-0.12856817 -0.011636696 0.031171713 -0.13374579 -0.20696838 0.28216073 -0.06940558 0.003942346
-0.03978837 0.058890317 0.047714386 0.091525614 -0.11451943 0.047024924 0.02565593 -0.17940392
0.07190336 0.15346529 -0.041228358 -0.025092041 0.19256091 0.18009874 -0.2872783 0.18739206
-0.15380214 0.06878459 0.16779529 -0.070959926 0.017157989 -0.07030511 0.12633187 0.12115745
